{
  "nodes": [
    {
      "op": "null", 
      "name": "data", 
      "inputs": []
    }, 
    {
      "op": "null", 
      "name": "resnetv10_conv0_weight", 
      "inputs": []
    }, 
    {
      "op": "tvm_op", 
      "name": "conv2d0", 
      "attrs": {
        "flatten_data": "0", 
        "func_name": "fuse_conv2d", 
        "num_inputs": "2", 
        "num_outputs": "1"
      }, 
      "inputs": [[0, 0, 0], [1, 0, 0]]
    }, 
    {
      "op": "null", 
      "name": "resnetv10_batchnorm0_running_var", 
      "inputs": []
    }, 
    {
      "op": "tvm_op", 
      "name": "batch_norm0_add_eps", 
      "attrs": {
        "flatten_data": "1", 
        "func_name": "fuse___add_scalar__", 
        "num_inputs": "1", 
        "num_outputs": "1"
      }, 
      "inputs": [[3, 0, 0]]
    }, 
    {
      "op": "tvm_op", 
      "name": "batch_norm0_sqrt", 
      "attrs": {
        "flatten_data": "1", 
        "func_name": "fuse_sqrt", 
        "num_inputs": "1", 
        "num_outputs": "1"
      }, 
      "inputs": [[4, 0, 0]]
    }, 
    {
      "op": "tvm_op", 
      "name": "batch_norm0_div", 
      "attrs": {
        "flatten_data": "1", 
        "func_name": "fuse___rdiv_scalar__", 
        "num_inputs": "1", 
        "num_outputs": "1"
      }, 
      "inputs": [[5, 0, 0]]
    }, 
    {
      "op": "null", 
      "name": "resnetv10_batchnorm0_gamma", 
      "inputs": []
    }, 
    {
      "op": "tvm_op", 
      "name": "batch_norm0_gamma_mul_div", 
      "attrs": {
        "flatten_data": "1", 
        "func_name": "fuse_elemwise_mul", 
        "num_inputs": "2", 
        "num_outputs": "1"
      }, 
      "inputs": [[6, 0, 0], [7, 0, 0]]
    }, 
    {
      "op": "tvm_op", 
      "name": "batch_norm0_gamma_mul_div_expand", 
      "attrs": {
        "flatten_data": "0", 
        "func_name": "fuse_expand_dims", 
        "num_inputs": "1", 
        "num_outputs": "1"
      }, 
      "inputs": [[8, 0, 0]]
    }, 
    {
      "op": "tvm_op", 
      "name": "batch_norm0_a_mul_data", 
      "attrs": {
        "flatten_data": "0", 
        "func_name": "fuse_broadcast_mul", 
        "num_inputs": "2", 
        "num_outputs": "1"
      }, 
      "inputs": [[2, 0, 0], [9, 0, 0]]
    }, 
    {
      "op": "null", 
      "name": "resnetv10_batchnorm0_running_mean", 
      "inputs": []
    }, 
    {
      "op": "tvm_op", 
      "name": "batch_norm0_neg_mean", 
      "attrs": {
        "flatten_data": "1", 
        "func_name": "fuse_negative", 
        "num_inputs": "1", 
        "num_outputs": "1"
      }, 
      "inputs": [[11, 0, 0]]
    }, 
    {
      "op": "tvm_op", 
      "name": "batch_norm0_neg_mean_mul_a", 
      "attrs": {
        "flatten_data": "1", 
        "func_name": "fuse_elemwise_mul", 
        "num_inputs": "2", 
        "num_outputs": "1"
      }, 
      "inputs": [[12, 0, 0], [8, 0, 0]]
    }, 
    {
      "op": "null", 
      "name": "resnetv10_batchnorm0_beta", 
      "inputs": []
    }, 
    {
      "op": "tvm_op", 
      "name": "batch_norm0_add_beta", 
      "attrs": {
        "flatten_data": "1", 
        "func_name": "fuse_elemwise_add", 
        "num_inputs": "2", 
        "num_outputs": "1"
      }, 
      "inputs": [[13, 0, 0], [14, 0, 0]]
    }, 
    {
      "op": "tvm_op", 
      "name": "batch_norm0_add_beta_expand", 
      "attrs": {
        "flatten_data": "0", 
        "func_name": "fuse_expand_dims", 
        "num_inputs": "1", 
        "num_outputs": "1"
      }, 
      "inputs": [[15, 0, 0]]
    }, 
    {
      "op": "tvm_op", 
      "name": "batch_norm0_out", 
      "attrs": {
        "flatten_data": "0", 
        "func_name": "fuse_broadcast_add", 
        "num_inputs": "2", 
        "num_outputs": "1"
      }, 
      "inputs": [[10, 0, 0], [16, 0, 0]]
    }, 
    {
      "op": "tvm_op", 
      "name": "relu0", 
      "attrs": {
        "flatten_data": "1", 
        "func_name": "fuse_relu", 
        "num_inputs": "1", 
        "num_outputs": "1"
      }, 
      "inputs": [[17, 0, 0]]
    }, 
    {
      "op": "tvm_op", 
      "name": "max_pool2d0", 
      "attrs": {
        "flatten_data": "0", 
        "func_name": "fuse_max_pool2d", 
        "num_inputs": "1", 
        "num_outputs": "1"
      }, 
      "inputs": [[18, 0, 0]]
    }, 
    {
      "op": "null", 
      "name": "resnetv10_stage1_conv0_weight", 
      "inputs": []
    }, 
    {
      "op": "tvm_op", 
      "name": "conv2d1", 
      "attrs": {
        "flatten_data": "0", 
        "func_name": "fuse_conv2d_1", 
        "num_inputs": "2", 
        "num_outputs": "1"
      }, 
      "inputs": [[19, 0, 0], [20, 0, 0]]
    }, 
    {
      "op": "null", 
      "name": "resnetv10_stage1_batchnorm0_running_var", 
      "inputs": []
    }, 
    {
      "op": "tvm_op", 
      "name": "batch_norm1_add_eps", 
      "attrs": {
        "flatten_data": "1", 
        "func_name": "fuse___add_scalar__", 
        "num_inputs": "1", 
        "num_outputs": "1"
      }, 
      "inputs": [[22, 0, 0]]
    }, 
    {
      "op": "tvm_op", 
      "name": "batch_norm1_sqrt", 
      "attrs": {
        "flatten_data": "1", 
        "func_name": "fuse_sqrt", 
        "num_inputs": "1", 
        "num_outputs": "1"
      }, 
      "inputs": [[23, 0, 0]]
    }, 
    {
      "op": "tvm_op", 
      "name": "batch_norm1_div", 
      "attrs": {
        "flatten_data": "1", 
        "func_name": "fuse___rdiv_scalar__", 
        "num_inputs": "1", 
        "num_outputs": "1"
      }, 
      "inputs": [[24, 0, 0]]
    }, 
    {
      "op": "null", 
      "name": "resnetv10_stage1_batchnorm0_gamma", 
      "inputs": []
    }, 
    {
      "op": "tvm_op", 
      "name": "batch_norm1_gamma_mul_div", 
      "attrs": {
        "flatten_data": "1", 
        "func_name": "fuse_elemwise_mul", 
        "num_inputs": "2", 
        "num_outputs": "1"
      }, 
      "inputs": [[25, 0, 0], [26, 0, 0]]
    }, 
    {
      "op": "tvm_op", 
      "name": "batch_norm1_gamma_mul_div_expand", 
      "attrs": {
        "flatten_data": "0", 
        "func_name": "fuse_expand_dims", 
        "num_inputs": "1", 
        "num_outputs": "1"
      }, 
      "inputs": [[27, 0, 0]]
    }, 
    {
      "op": "tvm_op", 
      "name": "batch_norm1_a_mul_data", 
      "attrs": {
        "flatten_data": "0", 
        "func_name": "fuse_broadcast_mul_1", 
        "num_inputs": "2", 
        "num_outputs": "1"
      }, 
      "inputs": [[21, 0, 0], [28, 0, 0]]
    }, 
    {
      "op": "null", 
      "name": "resnetv10_stage1_batchnorm0_running_mean", 
      "inputs": []
    }, 
    {
      "op": "tvm_op", 
      "name": "batch_norm1_neg_mean", 
      "attrs": {
        "flatten_data": "1", 
        "func_name": "fuse_negative", 
        "num_inputs": "1", 
        "num_outputs": "1"
      }, 
      "inputs": [[30, 0, 0]]
    }, 
    {
      "op": "tvm_op", 
      "name": "batch_norm1_neg_mean_mul_a", 
      "attrs": {
        "flatten_data": "1", 
        "func_name": "fuse_elemwise_mul", 
        "num_inputs": "2", 
        "num_outputs": "1"
      }, 
      "inputs": [[31, 0, 0], [27, 0, 0]]
    }, 
    {
      "op": "null", 
      "name": "resnetv10_stage1_batchnorm0_beta", 
      "inputs": []
    }, 
    {
      "op": "tvm_op", 
      "name": "batch_norm1_add_beta", 
      "attrs": {
        "flatten_data": "1", 
        "func_name": "fuse_elemwise_add", 
        "num_inputs": "2", 
        "num_outputs": "1"
      }, 
      "inputs": [[32, 0, 0], [33, 0, 0]]
    }, 
    {
      "op": "tvm_op", 
      "name": "batch_norm1_add_beta_expand", 
      "attrs": {
        "flatten_data": "0", 
        "func_name": "fuse_expand_dims", 
        "num_inputs": "1", 
        "num_outputs": "1"
      }, 
      "inputs": [[34, 0, 0]]
    }, 
    {
      "op": "tvm_op", 
      "name": "batch_norm1_out", 
      "attrs": {
        "flatten_data": "0", 
        "func_name": "fuse_broadcast_add_1", 
        "num_inputs": "2", 
        "num_outputs": "1"
      }, 
      "inputs": [[29, 0, 0], [35, 0, 0]]
    }, 
    {
      "op": "tvm_op", 
      "name": "relu1", 
      "attrs": {
        "flatten_data": "1", 
        "func_name": "fuse_relu_1", 
        "num_inputs": "1", 
        "num_outputs": "1"
      }, 
      "inputs": [[36, 0, 0]]
    }, 
    {
      "op": "null", 
      "name": "resnetv10_stage1_conv1_weight", 
      "inputs": []
    }, 
    {
      "op": "tvm_op", 
      "name": "conv2d2", 
      "attrs": {
        "flatten_data": "0", 
        "func_name": "fuse_conv2d_1", 
        "num_inputs": "2", 
        "num_outputs": "1"
      }, 
      "inputs": [[37, 0, 0], [38, 0, 0]]
    }, 
    {
      "op": "null", 
      "name": "resnetv10_stage1_batchnorm1_running_var", 
      "inputs": []
    }, 
    {
      "op": "tvm_op", 
      "name": "batch_norm2_add_eps", 
      "attrs": {
        "flatten_data": "1", 
        "func_name": "fuse___add_scalar__", 
        "num_inputs": "1", 
        "num_outputs": "1"
      }, 
      "inputs": [[40, 0, 0]]
    }, 
    {
      "op": "tvm_op", 
      "name": "batch_norm2_sqrt", 
      "attrs": {
        "flatten_data": "1", 
        "func_name": "fuse_sqrt", 
        "num_inputs": "1", 
        "num_outputs": "1"
      }, 
      "inputs": [[41, 0, 0]]
    }, 
    {
      "op": "tvm_op", 
      "name": "batch_norm2_div", 
      "attrs": {
        "flatten_data": "1", 
        "func_name": "fuse___rdiv_scalar__", 
        "num_inputs": "1", 
        "num_outputs": "1"
      }, 
      "inputs": [[42, 0, 0]]
    }, 
    {
      "op": "null", 
      "name": "resnetv10_stage1_batchnorm1_gamma", 
      "inputs": []
    }, 
    {
      "op": "tvm_op", 
      "name": "batch_norm2_gamma_mul_div", 
      "attrs": {
        "flatten_data": "1", 
        "func_name": "fuse_elemwise_mul", 
        "num_inputs": "2", 
        "num_outputs": "1"
      }, 
      "inputs": [[43, 0, 0], [44, 0, 0]]
    }, 
    {
      "op": "tvm_op", 
      "name": "batch_norm2_gamma_mul_div_expand", 
      "attrs": {
        "flatten_data": "0", 
        "func_name": "fuse_expand_dims", 
        "num_inputs": "1", 
        "num_outputs": "1"
      }, 
      "inputs": [[45, 0, 0]]
    }, 
    {
      "op": "tvm_op", 
      "name": "batch_norm2_a_mul_data", 
      "attrs": {
        "flatten_data": "0", 
        "func_name": "fuse_broadcast_mul_1", 
        "num_inputs": "2", 
        "num_outputs": "1"
      }, 
      "inputs": [[39, 0, 0], [46, 0, 0]]
    }, 
    {
      "op": "null", 
      "name": "resnetv10_stage1_batchnorm1_running_mean", 
      "inputs": []
    }, 
    {
      "op": "tvm_op", 
      "name": "batch_norm2_neg_mean", 
      "attrs": {
        "flatten_data": "1", 
        "func_name": "fuse_negative", 
        "num_inputs": "1", 
        "num_outputs": "1"
      }, 
      "inputs": [[48, 0, 0]]
    }, 
    {
      "op": "tvm_op", 
      "name": "batch_norm2_neg_mean_mul_a", 
      "attrs": {
        "flatten_data": "1", 
        "func_name": "fuse_elemwise_mul", 
        "num_inputs": "2", 
        "num_outputs": "1"
      }, 
      "inputs": [[49, 0, 0], [45, 0, 0]]
    }, 
    {
      "op": "null", 
      "name": "resnetv10_stage1_batchnorm1_beta", 
      "inputs": []
    }, 
    {
      "op": "tvm_op", 
      "name": "batch_norm2_add_beta", 
      "attrs": {
        "flatten_data": "1", 
        "func_name": "fuse_elemwise_add", 
        "num_inputs": "2", 
        "num_outputs": "1"
      }, 
      "inputs": [[50, 0, 0], [51, 0, 0]]
    }, 
    {
      "op": "tvm_op", 
      "name": "batch_norm2_add_beta_expand", 
      "attrs": {
        "flatten_data": "0", 
        "func_name": "fuse_expand_dims", 
        "num_inputs": "1", 
        "num_outputs": "1"
      }, 
      "inputs": [[52, 0, 0]]
    }, 
    {
      "op": "tvm_op", 
      "name": "batch_norm2_out", 
      "attrs": {
        "flatten_data": "0", 
        "func_name": "fuse_broadcast_add_1", 
        "num_inputs": "2", 
        "num_outputs": "1"
      }, 
      "inputs": [[47, 0, 0], [53, 0, 0]]
    }, 
    {
      "op": "tvm_op", 
      "name": "elemwise_add0", 
      "attrs": {
        "flatten_data": "1", 
        "func_name": "fuse_elemwise_add_1", 
        "num_inputs": "2", 
        "num_outputs": "1"
      }, 
      "inputs": [[19, 0, 0], [54, 0, 0]]
    }, 
    {
      "op": "tvm_op", 
      "name": "relu2", 
      "attrs": {
        "flatten_data": "1", 
        "func_name": "fuse_relu_1", 
        "num_inputs": "1", 
        "num_outputs": "1"
      }, 
      "inputs": [[55, 0, 0]]
    }, 
    {
      "op": "null", 
      "name": "resnetv10_stage1_conv2_weight", 
      "inputs": []
    }, 
    {
      "op": "tvm_op", 
      "name": "conv2d3", 
      "attrs": {
        "flatten_data": "0", 
        "func_name": "fuse_conv2d_1", 
        "num_inputs": "2", 
        "num_outputs": "1"
      }, 
      "inputs": [[56, 0, 0], [57, 0, 0]]
    }, 
    {
      "op": "null", 
      "name": "resnetv10_stage1_batchnorm2_running_var", 
      "inputs": []
    }, 
    {
      "op": "tvm_op", 
      "name": "batch_norm3_add_eps", 
      "attrs": {
        "flatten_data": "1", 
        "func_name": "fuse___add_scalar__", 
        "num_inputs": "1", 
        "num_outputs": "1"
      }, 
      "inputs": [[59, 0, 0]]
    }, 
    {
      "op": "tvm_op", 
      "name": "batch_norm3_sqrt", 
      "attrs": {
        "flatten_data": "1", 
        "func_name": "fuse_sqrt", 
        "num_inputs": "1", 
        "num_outputs": "1"
      }, 
      "inputs": [[60, 0, 0]]
    }, 
    {
      "op": "tvm_op", 
      "name": "batch_norm3_div", 
      "attrs": {
        "flatten_data": "1", 
        "func_name": "fuse___rdiv_scalar__", 
        "num_inputs": "1", 
        "num_outputs": "1"
      }, 
      "inputs": [[61, 0, 0]]
    }, 
    {
      "op": "null", 
      "name": "resnetv10_stage1_batchnorm2_gamma", 
      "inputs": []
    }, 
    {
      "op": "tvm_op", 
      "name": "batch_norm3_gamma_mul_div", 
      "attrs": {
        "flatten_data": "1", 
        "func_name": "fuse_elemwise_mul", 
        "num_inputs": "2", 
        "num_outputs": "1"
      }, 
      "inputs": [[62, 0, 0], [63, 0, 0]]
    }, 
    {
      "op": "tvm_op", 
      "name": "batch_norm3_gamma_mul_div_expand", 
      "attrs": {
        "flatten_data": "0", 
        "func_name": "fuse_expand_dims", 
        "num_inputs": "1", 
        "num_outputs": "1"
      }, 
      "inputs": [[64, 0, 0]]
    }, 
    {
      "op": "tvm_op", 
      "name": "batch_norm3_a_mul_data", 
      "attrs": {
        "flatten_data": "0", 
        "func_name": "fuse_broadcast_mul_1", 
        "num_inputs": "2", 
        "num_outputs": "1"
      }, 
      "inputs": [[58, 0, 0], [65, 0, 0]]
    }, 
    {
      "op": "null", 
      "name": "resnetv10_stage1_batchnorm2_running_mean", 
      "inputs": []
    }, 
    {
      "op": "tvm_op", 
      "name": "batch_norm3_neg_mean", 
      "attrs": {
        "flatten_data": "1", 
        "func_name": "fuse_negative", 
        "num_inputs": "1", 
        "num_outputs": "1"
      }, 
      "inputs": [[67, 0, 0]]
    }, 
    {
      "op": "tvm_op", 
      "name": "batch_norm3_neg_mean_mul_a", 
      "attrs": {
        "flatten_data": "1", 
        "func_name": "fuse_elemwise_mul", 
        "num_inputs": "2", 
        "num_outputs": "1"
      }, 
      "inputs": [[68, 0, 0], [64, 0, 0]]
    }, 
    {
      "op": "null", 
      "name": "resnetv10_stage1_batchnorm2_beta", 
      "inputs": []
    }, 
    {
      "op": "tvm_op", 
      "name": "batch_norm3_add_beta", 
      "attrs": {
        "flatten_data": "1", 
        "func_name": "fuse_elemwise_add", 
        "num_inputs": "2", 
        "num_outputs": "1"
      }, 
      "inputs": [[69, 0, 0], [70, 0, 0]]
    }, 
    {
      "op": "tvm_op", 
      "name": "batch_norm3_add_beta_expand", 
      "attrs": {
        "flatten_data": "0", 
        "func_name": "fuse_expand_dims", 
        "num_inputs": "1", 
        "num_outputs": "1"
      }, 
      "inputs": [[71, 0, 0]]
    }, 
    {
      "op": "tvm_op", 
      "name": "batch_norm3_out", 
      "attrs": {
        "flatten_data": "0", 
        "func_name": "fuse_broadcast_add_1", 
        "num_inputs": "2", 
        "num_outputs": "1"
      }, 
      "inputs": [[66, 0, 0], [72, 0, 0]]
    }, 
    {
      "op": "tvm_op", 
      "name": "relu3", 
      "attrs": {
        "flatten_data": "1", 
        "func_name": "fuse_relu_1", 
        "num_inputs": "1", 
        "num_outputs": "1"
      }, 
      "inputs": [[73, 0, 0]]
    }, 
    {
      "op": "null", 
      "name": "resnetv10_stage1_conv3_weight", 
      "inputs": []
    }, 
    {
      "op": "tvm_op", 
      "name": "conv2d4", 
      "attrs": {
        "flatten_data": "0", 
        "func_name": "fuse_conv2d_1", 
        "num_inputs": "2", 
        "num_outputs": "1"
      }, 
      "inputs": [[74, 0, 0], [75, 0, 0]]
    }, 
    {
      "op": "null", 
      "name": "resnetv10_stage1_batchnorm3_running_var", 
      "inputs": []
    }, 
    {
      "op": "tvm_op", 
      "name": "batch_norm4_add_eps", 
      "attrs": {
        "flatten_data": "1", 
        "func_name": "fuse___add_scalar__", 
        "num_inputs": "1", 
        "num_outputs": "1"
      }, 
      "inputs": [[77, 0, 0]]
    }, 
    {
      "op": "tvm_op", 
      "name": "batch_norm4_sqrt", 
      "attrs": {
        "flatten_data": "1", 
        "func_name": "fuse_sqrt", 
        "num_inputs": "1", 
        "num_outputs": "1"
      }, 
      "inputs": [[78, 0, 0]]
    }, 
    {
      "op": "tvm_op", 
      "name": "batch_norm4_div", 
      "attrs": {
        "flatten_data": "1", 
        "func_name": "fuse___rdiv_scalar__", 
        "num_inputs": "1", 
        "num_outputs": "1"
      }, 
      "inputs": [[79, 0, 0]]
    }, 
    {
      "op": "null", 
      "name": "resnetv10_stage1_batchnorm3_gamma", 
      "inputs": []
    }, 
    {
      "op": "tvm_op", 
      "name": "batch_norm4_gamma_mul_div", 
      "attrs": {
        "flatten_data": "1", 
        "func_name": "fuse_elemwise_mul", 
        "num_inputs": "2", 
        "num_outputs": "1"
      }, 
      "inputs": [[80, 0, 0], [81, 0, 0]]
    }, 
    {
      "op": "tvm_op", 
      "name": "batch_norm4_gamma_mul_div_expand", 
      "attrs": {
        "flatten_data": "0", 
        "func_name": "fuse_expand_dims", 
        "num_inputs": "1", 
        "num_outputs": "1"
      }, 
      "inputs": [[82, 0, 0]]
    }, 
    {
      "op": "tvm_op", 
      "name": "batch_norm4_a_mul_data", 
      "attrs": {
        "flatten_data": "0", 
        "func_name": "fuse_broadcast_mul_1", 
        "num_inputs": "2", 
        "num_outputs": "1"
      }, 
      "inputs": [[76, 0, 0], [83, 0, 0]]
    }, 
    {
      "op": "null", 
      "name": "resnetv10_stage1_batchnorm3_running_mean", 
      "inputs": []
    }, 
    {
      "op": "tvm_op", 
      "name": "batch_norm4_neg_mean", 
      "attrs": {
        "flatten_data": "1", 
        "func_name": "fuse_negative", 
        "num_inputs": "1", 
        "num_outputs": "1"
      }, 
      "inputs": [[85, 0, 0]]
    }, 
    {
      "op": "tvm_op", 
      "name": "batch_norm4_neg_mean_mul_a", 
      "attrs": {
        "flatten_data": "1", 
        "func_name": "fuse_elemwise_mul", 
        "num_inputs": "2", 
        "num_outputs": "1"
      }, 
      "inputs": [[86, 0, 0], [82, 0, 0]]
    }, 
    {
      "op": "null", 
      "name": "resnetv10_stage1_batchnorm3_beta", 
      "inputs": []
    }, 
    {
      "op": "tvm_op", 
      "name": "batch_norm4_add_beta", 
      "attrs": {
        "flatten_data": "1", 
        "func_name": "fuse_elemwise_add", 
        "num_inputs": "2", 
        "num_outputs": "1"
      }, 
      "inputs": [[87, 0, 0], [88, 0, 0]]
    }, 
    {
      "op": "tvm_op", 
      "name": "batch_norm4_add_beta_expand", 
      "attrs": {
        "flatten_data": "0", 
        "func_name": "fuse_expand_dims", 
        "num_inputs": "1", 
        "num_outputs": "1"
      }, 
      "inputs": [[89, 0, 0]]
    }, 
    {
      "op": "tvm_op", 
      "name": "batch_norm4_out", 
      "attrs": {
        "flatten_data": "0", 
        "func_name": "fuse_broadcast_add_1", 
        "num_inputs": "2", 
        "num_outputs": "1"
      }, 
      "inputs": [[84, 0, 0], [90, 0, 0]]
    }, 
    {
      "op": "tvm_op", 
      "name": "elemwise_add1", 
      "attrs": {
        "flatten_data": "1", 
        "func_name": "fuse_elemwise_add_1", 
        "num_inputs": "2", 
        "num_outputs": "1"
      }, 
      "inputs": [[56, 0, 0], [91, 0, 0]]
    }, 
    {
      "op": "tvm_op", 
      "name": "relu4", 
      "attrs": {
        "flatten_data": "1", 
        "func_name": "fuse_relu_1", 
        "num_inputs": "1", 
        "num_outputs": "1"
      }, 
      "inputs": [[92, 0, 0]]
    }, 
    {
      "op": "null", 
      "name": "resnetv10_stage2_conv2_weight", 
      "inputs": []
    }, 
    {
      "op": "tvm_op", 
      "name": "conv2d5", 
      "attrs": {
        "flatten_data": "0", 
        "func_name": "fuse_conv2d_2", 
        "num_inputs": "2", 
        "num_outputs": "1"
      }, 
      "inputs": [[93, 0, 0], [94, 0, 0]]
    }, 
    {
      "op": "null", 
      "name": "resnetv10_stage2_batchnorm2_running_var", 
      "inputs": []
    }, 
    {
      "op": "tvm_op", 
      "name": "batch_norm5_add_eps", 
      "attrs": {
        "flatten_data": "1", 
        "func_name": "fuse___add_scalar___1", 
        "num_inputs": "1", 
        "num_outputs": "1"
      }, 
      "inputs": [[96, 0, 0]]
    }, 
    {
      "op": "tvm_op", 
      "name": "batch_norm5_sqrt", 
      "attrs": {
        "flatten_data": "1", 
        "func_name": "fuse_sqrt_1", 
        "num_inputs": "1", 
        "num_outputs": "1"
      }, 
      "inputs": [[97, 0, 0]]
    }, 
    {
      "op": "tvm_op", 
      "name": "batch_norm5_div", 
      "attrs": {
        "flatten_data": "1", 
        "func_name": "fuse___rdiv_scalar___1", 
        "num_inputs": "1", 
        "num_outputs": "1"
      }, 
      "inputs": [[98, 0, 0]]
    }, 
    {
      "op": "null", 
      "name": "resnetv10_stage2_batchnorm2_gamma", 
      "inputs": []
    }, 
    {
      "op": "tvm_op", 
      "name": "batch_norm5_gamma_mul_div", 
      "attrs": {
        "flatten_data": "1", 
        "func_name": "fuse_elemwise_mul_1", 
        "num_inputs": "2", 
        "num_outputs": "1"
      }, 
      "inputs": [[99, 0, 0], [100, 0, 0]]
    }, 
    {
      "op": "tvm_op", 
      "name": "batch_norm5_gamma_mul_div_expand", 
      "attrs": {
        "flatten_data": "0", 
        "func_name": "fuse_expand_dims_1", 
        "num_inputs": "1", 
        "num_outputs": "1"
      }, 
      "inputs": [[101, 0, 0]]
    }, 
    {
      "op": "tvm_op", 
      "name": "batch_norm5_a_mul_data", 
      "attrs": {
        "flatten_data": "0", 
        "func_name": "fuse_broadcast_mul_2", 
        "num_inputs": "2", 
        "num_outputs": "1"
      }, 
      "inputs": [[95, 0, 0], [102, 0, 0]]
    }, 
    {
      "op": "null", 
      "name": "resnetv10_stage2_batchnorm2_running_mean", 
      "inputs": []
    }, 
    {
      "op": "tvm_op", 
      "name": "batch_norm5_neg_mean", 
      "attrs": {
        "flatten_data": "1", 
        "func_name": "fuse_negative_1", 
        "num_inputs": "1", 
        "num_outputs": "1"
      }, 
      "inputs": [[104, 0, 0]]
    }, 
    {
      "op": "tvm_op", 
      "name": "batch_norm5_neg_mean_mul_a", 
      "attrs": {
        "flatten_data": "1", 
        "func_name": "fuse_elemwise_mul_1", 
        "num_inputs": "2", 
        "num_outputs": "1"
      }, 
      "inputs": [[105, 0, 0], [101, 0, 0]]
    }, 
    {
      "op": "null", 
      "name": "resnetv10_stage2_batchnorm2_beta", 
      "inputs": []
    }, 
    {
      "op": "tvm_op", 
      "name": "batch_norm5_add_beta", 
      "attrs": {
        "flatten_data": "1", 
        "func_name": "fuse_elemwise_add_2", 
        "num_inputs": "2", 
        "num_outputs": "1"
      }, 
      "inputs": [[106, 0, 0], [107, 0, 0]]
    }, 
    {
      "op": "tvm_op", 
      "name": "batch_norm5_add_beta_expand", 
      "attrs": {
        "flatten_data": "0", 
        "func_name": "fuse_expand_dims_1", 
        "num_inputs": "1", 
        "num_outputs": "1"
      }, 
      "inputs": [[108, 0, 0]]
    }, 
    {
      "op": "tvm_op", 
      "name": "batch_norm5_out", 
      "attrs": {
        "flatten_data": "0", 
        "func_name": "fuse_broadcast_add_2", 
        "num_inputs": "2", 
        "num_outputs": "1"
      }, 
      "inputs": [[103, 0, 0], [109, 0, 0]]
    }, 
    {
      "op": "null", 
      "name": "resnetv10_stage2_conv0_weight", 
      "inputs": []
    }, 
    {
      "op": "tvm_op", 
      "name": "conv2d6", 
      "attrs": {
        "flatten_data": "0", 
        "func_name": "fuse_conv2d_3", 
        "num_inputs": "2", 
        "num_outputs": "1"
      }, 
      "inputs": [[93, 0, 0], [111, 0, 0]]
    }, 
    {
      "op": "null", 
      "name": "resnetv10_stage2_batchnorm0_running_var", 
      "inputs": []
    }, 
    {
      "op": "tvm_op", 
      "name": "batch_norm6_add_eps", 
      "attrs": {
        "flatten_data": "1", 
        "func_name": "fuse___add_scalar___1", 
        "num_inputs": "1", 
        "num_outputs": "1"
      }, 
      "inputs": [[113, 0, 0]]
    }, 
    {
      "op": "tvm_op", 
      "name": "batch_norm6_sqrt", 
      "attrs": {
        "flatten_data": "1", 
        "func_name": "fuse_sqrt_1", 
        "num_inputs": "1", 
        "num_outputs": "1"
      }, 
      "inputs": [[114, 0, 0]]
    }, 
    {
      "op": "tvm_op", 
      "name": "batch_norm6_div", 
      "attrs": {
        "flatten_data": "1", 
        "func_name": "fuse___rdiv_scalar___1", 
        "num_inputs": "1", 
        "num_outputs": "1"
      }, 
      "inputs": [[115, 0, 0]]
    }, 
    {
      "op": "null", 
      "name": "resnetv10_stage2_batchnorm0_gamma", 
      "inputs": []
    }, 
    {
      "op": "tvm_op", 
      "name": "batch_norm6_gamma_mul_div", 
      "attrs": {
        "flatten_data": "1", 
        "func_name": "fuse_elemwise_mul_1", 
        "num_inputs": "2", 
        "num_outputs": "1"
      }, 
      "inputs": [[116, 0, 0], [117, 0, 0]]
    }, 
    {
      "op": "tvm_op", 
      "name": "batch_norm6_gamma_mul_div_expand", 
      "attrs": {
        "flatten_data": "0", 
        "func_name": "fuse_expand_dims_1", 
        "num_inputs": "1", 
        "num_outputs": "1"
      }, 
      "inputs": [[118, 0, 0]]
    }, 
    {
      "op": "tvm_op", 
      "name": "batch_norm6_a_mul_data", 
      "attrs": {
        "flatten_data": "0", 
        "func_name": "fuse_broadcast_mul_2", 
        "num_inputs": "2", 
        "num_outputs": "1"
      }, 
      "inputs": [[112, 0, 0], [119, 0, 0]]
    }, 
    {
      "op": "null", 
      "name": "resnetv10_stage2_batchnorm0_running_mean", 
      "inputs": []
    }, 
    {
      "op": "tvm_op", 
      "name": "batch_norm6_neg_mean", 
      "attrs": {
        "flatten_data": "1", 
        "func_name": "fuse_negative_1", 
        "num_inputs": "1", 
        "num_outputs": "1"
      }, 
      "inputs": [[121, 0, 0]]
    }, 
    {
      "op": "tvm_op", 
      "name": "batch_norm6_neg_mean_mul_a", 
      "attrs": {
        "flatten_data": "1", 
        "func_name": "fuse_elemwise_mul_1", 
        "num_inputs": "2", 
        "num_outputs": "1"
      }, 
      "inputs": [[122, 0, 0], [118, 0, 0]]
    }, 
    {
      "op": "null", 
      "name": "resnetv10_stage2_batchnorm0_beta", 
      "inputs": []
    }, 
    {
      "op": "tvm_op", 
      "name": "batch_norm6_add_beta", 
      "attrs": {
        "flatten_data": "1", 
        "func_name": "fuse_elemwise_add_2", 
        "num_inputs": "2", 
        "num_outputs": "1"
      }, 
      "inputs": [[123, 0, 0], [124, 0, 0]]
    }, 
    {
      "op": "tvm_op", 
      "name": "batch_norm6_add_beta_expand", 
      "attrs": {
        "flatten_data": "0", 
        "func_name": "fuse_expand_dims_1", 
        "num_inputs": "1", 
        "num_outputs": "1"
      }, 
      "inputs": [[125, 0, 0]]
    }, 
    {
      "op": "tvm_op", 
      "name": "batch_norm6_out", 
      "attrs": {
        "flatten_data": "0", 
        "func_name": "fuse_broadcast_add_2", 
        "num_inputs": "2", 
        "num_outputs": "1"
      }, 
      "inputs": [[120, 0, 0], [126, 0, 0]]
    }, 
    {
      "op": "tvm_op", 
      "name": "relu5", 
      "attrs": {
        "flatten_data": "1", 
        "func_name": "fuse_relu_2", 
        "num_inputs": "1", 
        "num_outputs": "1"
      }, 
      "inputs": [[127, 0, 0]]
    }, 
    {
      "op": "null", 
      "name": "resnetv10_stage2_conv1_weight", 
      "inputs": []
    }, 
    {
      "op": "tvm_op", 
      "name": "conv2d7", 
      "attrs": {
        "flatten_data": "0", 
        "func_name": "fuse_conv2d_4", 
        "num_inputs": "2", 
        "num_outputs": "1"
      }, 
      "inputs": [[128, 0, 0], [129, 0, 0]]
    }, 
    {
      "op": "null", 
      "name": "resnetv10_stage2_batchnorm1_running_var", 
      "inputs": []
    }, 
    {
      "op": "tvm_op", 
      "name": "batch_norm7_add_eps", 
      "attrs": {
        "flatten_data": "1", 
        "func_name": "fuse___add_scalar___1", 
        "num_inputs": "1", 
        "num_outputs": "1"
      }, 
      "inputs": [[131, 0, 0]]
    }, 
    {
      "op": "tvm_op", 
      "name": "batch_norm7_sqrt", 
      "attrs": {
        "flatten_data": "1", 
        "func_name": "fuse_sqrt_1", 
        "num_inputs": "1", 
        "num_outputs": "1"
      }, 
      "inputs": [[132, 0, 0]]
    }, 
    {
      "op": "tvm_op", 
      "name": "batch_norm7_div", 
      "attrs": {
        "flatten_data": "1", 
        "func_name": "fuse___rdiv_scalar___1", 
        "num_inputs": "1", 
        "num_outputs": "1"
      }, 
      "inputs": [[133, 0, 0]]
    }, 
    {
      "op": "null", 
      "name": "resnetv10_stage2_batchnorm1_gamma", 
      "inputs": []
    }, 
    {
      "op": "tvm_op", 
      "name": "batch_norm7_gamma_mul_div", 
      "attrs": {
        "flatten_data": "1", 
        "func_name": "fuse_elemwise_mul_1", 
        "num_inputs": "2", 
        "num_outputs": "1"
      }, 
      "inputs": [[134, 0, 0], [135, 0, 0]]
    }, 
    {
      "op": "tvm_op", 
      "name": "batch_norm7_gamma_mul_div_expand", 
      "attrs": {
        "flatten_data": "0", 
        "func_name": "fuse_expand_dims_1", 
        "num_inputs": "1", 
        "num_outputs": "1"
      }, 
      "inputs": [[136, 0, 0]]
    }, 
    {
      "op": "tvm_op", 
      "name": "batch_norm7_a_mul_data", 
      "attrs": {
        "flatten_data": "0", 
        "func_name": "fuse_broadcast_mul_2", 
        "num_inputs": "2", 
        "num_outputs": "1"
      }, 
      "inputs": [[130, 0, 0], [137, 0, 0]]
    }, 
    {
      "op": "null", 
      "name": "resnetv10_stage2_batchnorm1_running_mean", 
      "inputs": []
    }, 
    {
      "op": "tvm_op", 
      "name": "batch_norm7_neg_mean", 
      "attrs": {
        "flatten_data": "1", 
        "func_name": "fuse_negative_1", 
        "num_inputs": "1", 
        "num_outputs": "1"
      }, 
      "inputs": [[139, 0, 0]]
    }, 
    {
      "op": "tvm_op", 
      "name": "batch_norm7_neg_mean_mul_a", 
      "attrs": {
        "flatten_data": "1", 
        "func_name": "fuse_elemwise_mul_1", 
        "num_inputs": "2", 
        "num_outputs": "1"
      }, 
      "inputs": [[140, 0, 0], [136, 0, 0]]
    }, 
    {
      "op": "null", 
      "name": "resnetv10_stage2_batchnorm1_beta", 
      "inputs": []
    }, 
    {
      "op": "tvm_op", 
      "name": "batch_norm7_add_beta", 
      "attrs": {
        "flatten_data": "1", 
        "func_name": "fuse_elemwise_add_2", 
        "num_inputs": "2", 
        "num_outputs": "1"
      }, 
      "inputs": [[141, 0, 0], [142, 0, 0]]
    }, 
    {
      "op": "tvm_op", 
      "name": "batch_norm7_add_beta_expand", 
      "attrs": {
        "flatten_data": "0", 
        "func_name": "fuse_expand_dims_1", 
        "num_inputs": "1", 
        "num_outputs": "1"
      }, 
      "inputs": [[143, 0, 0]]
    }, 
    {
      "op": "tvm_op", 
      "name": "batch_norm7_out", 
      "attrs": {
        "flatten_data": "0", 
        "func_name": "fuse_broadcast_add_2", 
        "num_inputs": "2", 
        "num_outputs": "1"
      }, 
      "inputs": [[138, 0, 0], [144, 0, 0]]
    }, 
    {
      "op": "tvm_op", 
      "name": "elemwise_add2", 
      "attrs": {
        "flatten_data": "1", 
        "func_name": "fuse_elemwise_add_3", 
        "num_inputs": "2", 
        "num_outputs": "1"
      }, 
      "inputs": [[110, 0, 0], [145, 0, 0]]
    }, 
    {
      "op": "tvm_op", 
      "name": "relu6", 
      "attrs": {
        "flatten_data": "1", 
        "func_name": "fuse_relu_2", 
        "num_inputs": "1", 
        "num_outputs": "1"
      }, 
      "inputs": [[146, 0, 0]]
    }, 
    {
      "op": "null", 
      "name": "resnetv10_stage2_conv3_weight", 
      "inputs": []
    }, 
    {
      "op": "tvm_op", 
      "name": "conv2d8", 
      "attrs": {
        "flatten_data": "0", 
        "func_name": "fuse_conv2d_4", 
        "num_inputs": "2", 
        "num_outputs": "1"
      }, 
      "inputs": [[147, 0, 0], [148, 0, 0]]
    }, 
    {
      "op": "null", 
      "name": "resnetv10_stage2_batchnorm3_running_var", 
      "inputs": []
    }, 
    {
      "op": "tvm_op", 
      "name": "batch_norm8_add_eps", 
      "attrs": {
        "flatten_data": "1", 
        "func_name": "fuse___add_scalar___1", 
        "num_inputs": "1", 
        "num_outputs": "1"
      }, 
      "inputs": [[150, 0, 0]]
    }, 
    {
      "op": "tvm_op", 
      "name": "batch_norm8_sqrt", 
      "attrs": {
        "flatten_data": "1", 
        "func_name": "fuse_sqrt_1", 
        "num_inputs": "1", 
        "num_outputs": "1"
      }, 
      "inputs": [[151, 0, 0]]
    }, 
    {
      "op": "tvm_op", 
      "name": "batch_norm8_div", 
      "attrs": {
        "flatten_data": "1", 
        "func_name": "fuse___rdiv_scalar___1", 
        "num_inputs": "1", 
        "num_outputs": "1"
      }, 
      "inputs": [[152, 0, 0]]
    }, 
    {
      "op": "null", 
      "name": "resnetv10_stage2_batchnorm3_gamma", 
      "inputs": []
    }, 
    {
      "op": "tvm_op", 
      "name": "batch_norm8_gamma_mul_div", 
      "attrs": {
        "flatten_data": "1", 
        "func_name": "fuse_elemwise_mul_1", 
        "num_inputs": "2", 
        "num_outputs": "1"
      }, 
      "inputs": [[153, 0, 0], [154, 0, 0]]
    }, 
    {
      "op": "tvm_op", 
      "name": "batch_norm8_gamma_mul_div_expand", 
      "attrs": {
        "flatten_data": "0", 
        "func_name": "fuse_expand_dims_1", 
        "num_inputs": "1", 
        "num_outputs": "1"
      }, 
      "inputs": [[155, 0, 0]]
    }, 
    {
      "op": "tvm_op", 
      "name": "batch_norm8_a_mul_data", 
      "attrs": {
        "flatten_data": "0", 
        "func_name": "fuse_broadcast_mul_2", 
        "num_inputs": "2", 
        "num_outputs": "1"
      }, 
      "inputs": [[149, 0, 0], [156, 0, 0]]
    }, 
    {
      "op": "null", 
      "name": "resnetv10_stage2_batchnorm3_running_mean", 
      "inputs": []
    }, 
    {
      "op": "tvm_op", 
      "name": "batch_norm8_neg_mean", 
      "attrs": {
        "flatten_data": "1", 
        "func_name": "fuse_negative_1", 
        "num_inputs": "1", 
        "num_outputs": "1"
      }, 
      "inputs": [[158, 0, 0]]
    }, 
    {
      "op": "tvm_op", 
      "name": "batch_norm8_neg_mean_mul_a", 
      "attrs": {
        "flatten_data": "1", 
        "func_name": "fuse_elemwise_mul_1", 
        "num_inputs": "2", 
        "num_outputs": "1"
      }, 
      "inputs": [[159, 0, 0], [155, 0, 0]]
    }, 
    {
      "op": "null", 
      "name": "resnetv10_stage2_batchnorm3_beta", 
      "inputs": []
    }, 
    {
      "op": "tvm_op", 
      "name": "batch_norm8_add_beta", 
      "attrs": {
        "flatten_data": "1", 
        "func_name": "fuse_elemwise_add_2", 
        "num_inputs": "2", 
        "num_outputs": "1"
      }, 
      "inputs": [[160, 0, 0], [161, 0, 0]]
    }, 
    {
      "op": "tvm_op", 
      "name": "batch_norm8_add_beta_expand", 
      "attrs": {
        "flatten_data": "0", 
        "func_name": "fuse_expand_dims_1", 
        "num_inputs": "1", 
        "num_outputs": "1"
      }, 
      "inputs": [[162, 0, 0]]
    }, 
    {
      "op": "tvm_op", 
      "name": "batch_norm8_out", 
      "attrs": {
        "flatten_data": "0", 
        "func_name": "fuse_broadcast_add_2", 
        "num_inputs": "2", 
        "num_outputs": "1"
      }, 
      "inputs": [[157, 0, 0], [163, 0, 0]]
    }, 
    {
      "op": "tvm_op", 
      "name": "relu7", 
      "attrs": {
        "flatten_data": "1", 
        "func_name": "fuse_relu_2", 
        "num_inputs": "1", 
        "num_outputs": "1"
      }, 
      "inputs": [[164, 0, 0]]
    }, 
    {
      "op": "null", 
      "name": "resnetv10_stage2_conv4_weight", 
      "inputs": []
    }, 
    {
      "op": "tvm_op", 
      "name": "conv2d9", 
      "attrs": {
        "flatten_data": "0", 
        "func_name": "fuse_conv2d_4", 
        "num_inputs": "2", 
        "num_outputs": "1"
      }, 
      "inputs": [[165, 0, 0], [166, 0, 0]]
    }, 
    {
      "op": "null", 
      "name": "resnetv10_stage2_batchnorm4_running_var", 
      "inputs": []
    }, 
    {
      "op": "tvm_op", 
      "name": "batch_norm9_add_eps", 
      "attrs": {
        "flatten_data": "1", 
        "func_name": "fuse___add_scalar___1", 
        "num_inputs": "1", 
        "num_outputs": "1"
      }, 
      "inputs": [[168, 0, 0]]
    }, 
    {
      "op": "tvm_op", 
      "name": "batch_norm9_sqrt", 
      "attrs": {
        "flatten_data": "1", 
        "func_name": "fuse_sqrt_1", 
        "num_inputs": "1", 
        "num_outputs": "1"
      }, 
      "inputs": [[169, 0, 0]]
    }, 
    {
      "op": "tvm_op", 
      "name": "batch_norm9_div", 
      "attrs": {
        "flatten_data": "1", 
        "func_name": "fuse___rdiv_scalar___1", 
        "num_inputs": "1", 
        "num_outputs": "1"
      }, 
      "inputs": [[170, 0, 0]]
    }, 
    {
      "op": "null", 
      "name": "resnetv10_stage2_batchnorm4_gamma", 
      "inputs": []
    }, 
    {
      "op": "tvm_op", 
      "name": "batch_norm9_gamma_mul_div", 
      "attrs": {
        "flatten_data": "1", 
        "func_name": "fuse_elemwise_mul_1", 
        "num_inputs": "2", 
        "num_outputs": "1"
      }, 
      "inputs": [[171, 0, 0], [172, 0, 0]]
    }, 
    {
      "op": "tvm_op", 
      "name": "batch_norm9_gamma_mul_div_expand", 
      "attrs": {
        "flatten_data": "0", 
        "func_name": "fuse_expand_dims_1", 
        "num_inputs": "1", 
        "num_outputs": "1"
      }, 
      "inputs": [[173, 0, 0]]
    }, 
    {
      "op": "tvm_op", 
      "name": "batch_norm9_a_mul_data", 
      "attrs": {
        "flatten_data": "0", 
        "func_name": "fuse_broadcast_mul_2", 
        "num_inputs": "2", 
        "num_outputs": "1"
      }, 
      "inputs": [[167, 0, 0], [174, 0, 0]]
    }, 
    {
      "op": "null", 
      "name": "resnetv10_stage2_batchnorm4_running_mean", 
      "inputs": []
    }, 
    {
      "op": "tvm_op", 
      "name": "batch_norm9_neg_mean", 
      "attrs": {
        "flatten_data": "1", 
        "func_name": "fuse_negative_1", 
        "num_inputs": "1", 
        "num_outputs": "1"
      }, 
      "inputs": [[176, 0, 0]]
    }, 
    {
      "op": "tvm_op", 
      "name": "batch_norm9_neg_mean_mul_a", 
      "attrs": {
        "flatten_data": "1", 
        "func_name": "fuse_elemwise_mul_1", 
        "num_inputs": "2", 
        "num_outputs": "1"
      }, 
      "inputs": [[177, 0, 0], [173, 0, 0]]
    }, 
    {
      "op": "null", 
      "name": "resnetv10_stage2_batchnorm4_beta", 
      "inputs": []
    }, 
    {
      "op": "tvm_op", 
      "name": "batch_norm9_add_beta", 
      "attrs": {
        "flatten_data": "1", 
        "func_name": "fuse_elemwise_add_2", 
        "num_inputs": "2", 
        "num_outputs": "1"
      }, 
      "inputs": [[178, 0, 0], [179, 0, 0]]
    }, 
    {
      "op": "tvm_op", 
      "name": "batch_norm9_add_beta_expand", 
      "attrs": {
        "flatten_data": "0", 
        "func_name": "fuse_expand_dims_1", 
        "num_inputs": "1", 
        "num_outputs": "1"
      }, 
      "inputs": [[180, 0, 0]]
    }, 
    {
      "op": "tvm_op", 
      "name": "batch_norm9_out", 
      "attrs": {
        "flatten_data": "0", 
        "func_name": "fuse_broadcast_add_2", 
        "num_inputs": "2", 
        "num_outputs": "1"
      }, 
      "inputs": [[175, 0, 0], [181, 0, 0]]
    }, 
    {
      "op": "tvm_op", 
      "name": "elemwise_add3", 
      "attrs": {
        "flatten_data": "1", 
        "func_name": "fuse_elemwise_add_3", 
        "num_inputs": "2", 
        "num_outputs": "1"
      }, 
      "inputs": [[147, 0, 0], [182, 0, 0]]
    }, 
    {
      "op": "tvm_op", 
      "name": "relu8", 
      "attrs": {
        "flatten_data": "1", 
        "func_name": "fuse_relu_2", 
        "num_inputs": "1", 
        "num_outputs": "1"
      }, 
      "inputs": [[183, 0, 0]]
    }, 
    {
      "op": "null", 
      "name": "resnetv10_stage3_conv2_weight", 
      "inputs": []
    }, 
    {
      "op": "tvm_op", 
      "name": "conv2d10", 
      "attrs": {
        "flatten_data": "0", 
        "func_name": "fuse_conv2d_5", 
        "num_inputs": "2", 
        "num_outputs": "1"
      }, 
      "inputs": [[184, 0, 0], [185, 0, 0]]
    }, 
    {
      "op": "null", 
      "name": "resnetv10_stage3_batchnorm2_running_var", 
      "inputs": []
    }, 
    {
      "op": "tvm_op", 
      "name": "batch_norm10_add_eps", 
      "attrs": {
        "flatten_data": "1", 
        "func_name": "fuse___add_scalar___2", 
        "num_inputs": "1", 
        "num_outputs": "1"
      }, 
      "inputs": [[187, 0, 0]]
    }, 
    {
      "op": "tvm_op", 
      "name": "batch_norm10_sqrt", 
      "attrs": {
        "flatten_data": "1", 
        "func_name": "fuse_sqrt_2", 
        "num_inputs": "1", 
        "num_outputs": "1"
      }, 
      "inputs": [[188, 0, 0]]
    }, 
    {
      "op": "tvm_op", 
      "name": "batch_norm10_div", 
      "attrs": {
        "flatten_data": "1", 
        "func_name": "fuse___rdiv_scalar___2", 
        "num_inputs": "1", 
        "num_outputs": "1"
      }, 
      "inputs": [[189, 0, 0]]
    }, 
    {
      "op": "null", 
      "name": "resnetv10_stage3_batchnorm2_gamma", 
      "inputs": []
    }, 
    {
      "op": "tvm_op", 
      "name": "batch_norm10_gamma_mul_div", 
      "attrs": {
        "flatten_data": "1", 
        "func_name": "fuse_elemwise_mul_2", 
        "num_inputs": "2", 
        "num_outputs": "1"
      }, 
      "inputs": [[190, 0, 0], [191, 0, 0]]
    }, 
    {
      "op": "tvm_op", 
      "name": "batch_norm10_gamma_mul_div_expand", 
      "attrs": {
        "flatten_data": "0", 
        "func_name": "fuse_expand_dims_2", 
        "num_inputs": "1", 
        "num_outputs": "1"
      }, 
      "inputs": [[192, 0, 0]]
    }, 
    {
      "op": "tvm_op", 
      "name": "batch_norm10_a_mul_data", 
      "attrs": {
        "flatten_data": "0", 
        "func_name": "fuse_broadcast_mul_3", 
        "num_inputs": "2", 
        "num_outputs": "1"
      }, 
      "inputs": [[186, 0, 0], [193, 0, 0]]
    }, 
    {
      "op": "null", 
      "name": "resnetv10_stage3_batchnorm2_running_mean", 
      "inputs": []
    }, 
    {
      "op": "tvm_op", 
      "name": "batch_norm10_neg_mean", 
      "attrs": {
        "flatten_data": "1", 
        "func_name": "fuse_negative_2", 
        "num_inputs": "1", 
        "num_outputs": "1"
      }, 
      "inputs": [[195, 0, 0]]
    }, 
    {
      "op": "tvm_op", 
      "name": "batch_norm10_neg_mean_mul_a", 
      "attrs": {
        "flatten_data": "1", 
        "func_name": "fuse_elemwise_mul_2", 
        "num_inputs": "2", 
        "num_outputs": "1"
      }, 
      "inputs": [[196, 0, 0], [192, 0, 0]]
    }, 
    {
      "op": "null", 
      "name": "resnetv10_stage3_batchnorm2_beta", 
      "inputs": []
    }, 
    {
      "op": "tvm_op", 
      "name": "batch_norm10_add_beta", 
      "attrs": {
        "flatten_data": "1", 
        "func_name": "fuse_elemwise_add_4", 
        "num_inputs": "2", 
        "num_outputs": "1"
      }, 
      "inputs": [[197, 0, 0], [198, 0, 0]]
    }, 
    {
      "op": "tvm_op", 
      "name": "batch_norm10_add_beta_expand", 
      "attrs": {
        "flatten_data": "0", 
        "func_name": "fuse_expand_dims_2", 
        "num_inputs": "1", 
        "num_outputs": "1"
      }, 
      "inputs": [[199, 0, 0]]
    }, 
    {
      "op": "tvm_op", 
      "name": "batch_norm10_out", 
      "attrs": {
        "flatten_data": "0", 
        "func_name": "fuse_broadcast_add_3", 
        "num_inputs": "2", 
        "num_outputs": "1"
      }, 
      "inputs": [[194, 0, 0], [200, 0, 0]]
    }, 
    {
      "op": "null", 
      "name": "resnetv10_stage3_conv0_weight", 
      "inputs": []
    }, 
    {
      "op": "tvm_op", 
      "name": "conv2d11", 
      "attrs": {
        "flatten_data": "0", 
        "func_name": "fuse_conv2d_6", 
        "num_inputs": "2", 
        "num_outputs": "1"
      }, 
      "inputs": [[184, 0, 0], [202, 0, 0]]
    }, 
    {
      "op": "null", 
      "name": "resnetv10_stage3_batchnorm0_running_var", 
      "inputs": []
    }, 
    {
      "op": "tvm_op", 
      "name": "batch_norm11_add_eps", 
      "attrs": {
        "flatten_data": "1", 
        "func_name": "fuse___add_scalar___2", 
        "num_inputs": "1", 
        "num_outputs": "1"
      }, 
      "inputs": [[204, 0, 0]]
    }, 
    {
      "op": "tvm_op", 
      "name": "batch_norm11_sqrt", 
      "attrs": {
        "flatten_data": "1", 
        "func_name": "fuse_sqrt_2", 
        "num_inputs": "1", 
        "num_outputs": "1"
      }, 
      "inputs": [[205, 0, 0]]
    }, 
    {
      "op": "tvm_op", 
      "name": "batch_norm11_div", 
      "attrs": {
        "flatten_data": "1", 
        "func_name": "fuse___rdiv_scalar___2", 
        "num_inputs": "1", 
        "num_outputs": "1"
      }, 
      "inputs": [[206, 0, 0]]
    }, 
    {
      "op": "null", 
      "name": "resnetv10_stage3_batchnorm0_gamma", 
      "inputs": []
    }, 
    {
      "op": "tvm_op", 
      "name": "batch_norm11_gamma_mul_div", 
      "attrs": {
        "flatten_data": "1", 
        "func_name": "fuse_elemwise_mul_2", 
        "num_inputs": "2", 
        "num_outputs": "1"
      }, 
      "inputs": [[207, 0, 0], [208, 0, 0]]
    }, 
    {
      "op": "tvm_op", 
      "name": "batch_norm11_gamma_mul_div_expand", 
      "attrs": {
        "flatten_data": "0", 
        "func_name": "fuse_expand_dims_2", 
        "num_inputs": "1", 
        "num_outputs": "1"
      }, 
      "inputs": [[209, 0, 0]]
    }, 
    {
      "op": "tvm_op", 
      "name": "batch_norm11_a_mul_data", 
      "attrs": {
        "flatten_data": "0", 
        "func_name": "fuse_broadcast_mul_3", 
        "num_inputs": "2", 
        "num_outputs": "1"
      }, 
      "inputs": [[203, 0, 0], [210, 0, 0]]
    }, 
    {
      "op": "null", 
      "name": "resnetv10_stage3_batchnorm0_running_mean", 
      "inputs": []
    }, 
    {
      "op": "tvm_op", 
      "name": "batch_norm11_neg_mean", 
      "attrs": {
        "flatten_data": "1", 
        "func_name": "fuse_negative_2", 
        "num_inputs": "1", 
        "num_outputs": "1"
      }, 
      "inputs": [[212, 0, 0]]
    }, 
    {
      "op": "tvm_op", 
      "name": "batch_norm11_neg_mean_mul_a", 
      "attrs": {
        "flatten_data": "1", 
        "func_name": "fuse_elemwise_mul_2", 
        "num_inputs": "2", 
        "num_outputs": "1"
      }, 
      "inputs": [[213, 0, 0], [209, 0, 0]]
    }, 
    {
      "op": "null", 
      "name": "resnetv10_stage3_batchnorm0_beta", 
      "inputs": []
    }, 
    {
      "op": "tvm_op", 
      "name": "batch_norm11_add_beta", 
      "attrs": {
        "flatten_data": "1", 
        "func_name": "fuse_elemwise_add_4", 
        "num_inputs": "2", 
        "num_outputs": "1"
      }, 
      "inputs": [[214, 0, 0], [215, 0, 0]]
    }, 
    {
      "op": "tvm_op", 
      "name": "batch_norm11_add_beta_expand", 
      "attrs": {
        "flatten_data": "0", 
        "func_name": "fuse_expand_dims_2", 
        "num_inputs": "1", 
        "num_outputs": "1"
      }, 
      "inputs": [[216, 0, 0]]
    }, 
    {
      "op": "tvm_op", 
      "name": "batch_norm11_out", 
      "attrs": {
        "flatten_data": "0", 
        "func_name": "fuse_broadcast_add_3", 
        "num_inputs": "2", 
        "num_outputs": "1"
      }, 
      "inputs": [[211, 0, 0], [217, 0, 0]]
    }, 
    {
      "op": "tvm_op", 
      "name": "relu9", 
      "attrs": {
        "flatten_data": "1", 
        "func_name": "fuse_relu_3", 
        "num_inputs": "1", 
        "num_outputs": "1"
      }, 
      "inputs": [[218, 0, 0]]
    }, 
    {
      "op": "null", 
      "name": "resnetv10_stage3_conv1_weight", 
      "inputs": []
    }, 
    {
      "op": "tvm_op", 
      "name": "conv2d12", 
      "attrs": {
        "flatten_data": "0", 
        "func_name": "fuse_conv2d_7", 
        "num_inputs": "2", 
        "num_outputs": "1"
      }, 
      "inputs": [[219, 0, 0], [220, 0, 0]]
    }, 
    {
      "op": "null", 
      "name": "resnetv10_stage3_batchnorm1_running_var", 
      "inputs": []
    }, 
    {
      "op": "tvm_op", 
      "name": "batch_norm12_add_eps", 
      "attrs": {
        "flatten_data": "1", 
        "func_name": "fuse___add_scalar___2", 
        "num_inputs": "1", 
        "num_outputs": "1"
      }, 
      "inputs": [[222, 0, 0]]
    }, 
    {
      "op": "tvm_op", 
      "name": "batch_norm12_sqrt", 
      "attrs": {
        "flatten_data": "1", 
        "func_name": "fuse_sqrt_2", 
        "num_inputs": "1", 
        "num_outputs": "1"
      }, 
      "inputs": [[223, 0, 0]]
    }, 
    {
      "op": "tvm_op", 
      "name": "batch_norm12_div", 
      "attrs": {
        "flatten_data": "1", 
        "func_name": "fuse___rdiv_scalar___2", 
        "num_inputs": "1", 
        "num_outputs": "1"
      }, 
      "inputs": [[224, 0, 0]]
    }, 
    {
      "op": "null", 
      "name": "resnetv10_stage3_batchnorm1_gamma", 
      "inputs": []
    }, 
    {
      "op": "tvm_op", 
      "name": "batch_norm12_gamma_mul_div", 
      "attrs": {
        "flatten_data": "1", 
        "func_name": "fuse_elemwise_mul_2", 
        "num_inputs": "2", 
        "num_outputs": "1"
      }, 
      "inputs": [[225, 0, 0], [226, 0, 0]]
    }, 
    {
      "op": "tvm_op", 
      "name": "batch_norm12_gamma_mul_div_expand", 
      "attrs": {
        "flatten_data": "0", 
        "func_name": "fuse_expand_dims_2", 
        "num_inputs": "1", 
        "num_outputs": "1"
      }, 
      "inputs": [[227, 0, 0]]
    }, 
    {
      "op": "tvm_op", 
      "name": "batch_norm12_a_mul_data", 
      "attrs": {
        "flatten_data": "0", 
        "func_name": "fuse_broadcast_mul_3", 
        "num_inputs": "2", 
        "num_outputs": "1"
      }, 
      "inputs": [[221, 0, 0], [228, 0, 0]]
    }, 
    {
      "op": "null", 
      "name": "resnetv10_stage3_batchnorm1_running_mean", 
      "inputs": []
    }, 
    {
      "op": "tvm_op", 
      "name": "batch_norm12_neg_mean", 
      "attrs": {
        "flatten_data": "1", 
        "func_name": "fuse_negative_2", 
        "num_inputs": "1", 
        "num_outputs": "1"
      }, 
      "inputs": [[230, 0, 0]]
    }, 
    {
      "op": "tvm_op", 
      "name": "batch_norm12_neg_mean_mul_a", 
      "attrs": {
        "flatten_data": "1", 
        "func_name": "fuse_elemwise_mul_2", 
        "num_inputs": "2", 
        "num_outputs": "1"
      }, 
      "inputs": [[231, 0, 0], [227, 0, 0]]
    }, 
    {
      "op": "null", 
      "name": "resnetv10_stage3_batchnorm1_beta", 
      "inputs": []
    }, 
    {
      "op": "tvm_op", 
      "name": "batch_norm12_add_beta", 
      "attrs": {
        "flatten_data": "1", 
        "func_name": "fuse_elemwise_add_4", 
        "num_inputs": "2", 
        "num_outputs": "1"
      }, 
      "inputs": [[232, 0, 0], [233, 0, 0]]
    }, 
    {
      "op": "tvm_op", 
      "name": "batch_norm12_add_beta_expand", 
      "attrs": {
        "flatten_data": "0", 
        "func_name": "fuse_expand_dims_2", 
        "num_inputs": "1", 
        "num_outputs": "1"
      }, 
      "inputs": [[234, 0, 0]]
    }, 
    {
      "op": "tvm_op", 
      "name": "batch_norm12_out", 
      "attrs": {
        "flatten_data": "0", 
        "func_name": "fuse_broadcast_add_3", 
        "num_inputs": "2", 
        "num_outputs": "1"
      }, 
      "inputs": [[229, 0, 0], [235, 0, 0]]
    }, 
    {
      "op": "tvm_op", 
      "name": "elemwise_add4", 
      "attrs": {
        "flatten_data": "1", 
        "func_name": "fuse_elemwise_add_5", 
        "num_inputs": "2", 
        "num_outputs": "1"
      }, 
      "inputs": [[201, 0, 0], [236, 0, 0]]
    }, 
    {
      "op": "tvm_op", 
      "name": "relu10", 
      "attrs": {
        "flatten_data": "1", 
        "func_name": "fuse_relu_3", 
        "num_inputs": "1", 
        "num_outputs": "1"
      }, 
      "inputs": [[237, 0, 0]]
    }, 
    {
      "op": "null", 
      "name": "resnetv10_stage3_conv3_weight", 
      "inputs": []
    }, 
    {
      "op": "tvm_op", 
      "name": "conv2d13", 
      "attrs": {
        "flatten_data": "0", 
        "func_name": "fuse_conv2d_7", 
        "num_inputs": "2", 
        "num_outputs": "1"
      }, 
      "inputs": [[238, 0, 0], [239, 0, 0]]
    }, 
    {
      "op": "null", 
      "name": "resnetv10_stage3_batchnorm3_running_var", 
      "inputs": []
    }, 
    {
      "op": "tvm_op", 
      "name": "batch_norm13_add_eps", 
      "attrs": {
        "flatten_data": "1", 
        "func_name": "fuse___add_scalar___2", 
        "num_inputs": "1", 
        "num_outputs": "1"
      }, 
      "inputs": [[241, 0, 0]]
    }, 
    {
      "op": "tvm_op", 
      "name": "batch_norm13_sqrt", 
      "attrs": {
        "flatten_data": "1", 
        "func_name": "fuse_sqrt_2", 
        "num_inputs": "1", 
        "num_outputs": "1"
      }, 
      "inputs": [[242, 0, 0]]
    }, 
    {
      "op": "tvm_op", 
      "name": "batch_norm13_div", 
      "attrs": {
        "flatten_data": "1", 
        "func_name": "fuse___rdiv_scalar___2", 
        "num_inputs": "1", 
        "num_outputs": "1"
      }, 
      "inputs": [[243, 0, 0]]
    }, 
    {
      "op": "null", 
      "name": "resnetv10_stage3_batchnorm3_gamma", 
      "inputs": []
    }, 
    {
      "op": "tvm_op", 
      "name": "batch_norm13_gamma_mul_div", 
      "attrs": {
        "flatten_data": "1", 
        "func_name": "fuse_elemwise_mul_2", 
        "num_inputs": "2", 
        "num_outputs": "1"
      }, 
      "inputs": [[244, 0, 0], [245, 0, 0]]
    }, 
    {
      "op": "tvm_op", 
      "name": "batch_norm13_gamma_mul_div_expand", 
      "attrs": {
        "flatten_data": "0", 
        "func_name": "fuse_expand_dims_2", 
        "num_inputs": "1", 
        "num_outputs": "1"
      }, 
      "inputs": [[246, 0, 0]]
    }, 
    {
      "op": "tvm_op", 
      "name": "batch_norm13_a_mul_data", 
      "attrs": {
        "flatten_data": "0", 
        "func_name": "fuse_broadcast_mul_3", 
        "num_inputs": "2", 
        "num_outputs": "1"
      }, 
      "inputs": [[240, 0, 0], [247, 0, 0]]
    }, 
    {
      "op": "null", 
      "name": "resnetv10_stage3_batchnorm3_running_mean", 
      "inputs": []
    }, 
    {
      "op": "tvm_op", 
      "name": "batch_norm13_neg_mean", 
      "attrs": {
        "flatten_data": "1", 
        "func_name": "fuse_negative_2", 
        "num_inputs": "1", 
        "num_outputs": "1"
      }, 
      "inputs": [[249, 0, 0]]
    }, 
    {
      "op": "tvm_op", 
      "name": "batch_norm13_neg_mean_mul_a", 
      "attrs": {
        "flatten_data": "1", 
        "func_name": "fuse_elemwise_mul_2", 
        "num_inputs": "2", 
        "num_outputs": "1"
      }, 
      "inputs": [[250, 0, 0], [246, 0, 0]]
    }, 
    {
      "op": "null", 
      "name": "resnetv10_stage3_batchnorm3_beta", 
      "inputs": []
    }, 
    {
      "op": "tvm_op", 
      "name": "batch_norm13_add_beta", 
      "attrs": {
        "flatten_data": "1", 
        "func_name": "fuse_elemwise_add_4", 
        "num_inputs": "2", 
        "num_outputs": "1"
      }, 
      "inputs": [[251, 0, 0], [252, 0, 0]]
    }, 
    {
      "op": "tvm_op", 
      "name": "batch_norm13_add_beta_expand", 
      "attrs": {
        "flatten_data": "0", 
        "func_name": "fuse_expand_dims_2", 
        "num_inputs": "1", 
        "num_outputs": "1"
      }, 
      "inputs": [[253, 0, 0]]
    }, 
    {
      "op": "tvm_op", 
      "name": "batch_norm13_out", 
      "attrs": {
        "flatten_data": "0", 
        "func_name": "fuse_broadcast_add_3", 
        "num_inputs": "2", 
        "num_outputs": "1"
      }, 
      "inputs": [[248, 0, 0], [254, 0, 0]]
    }, 
    {
      "op": "tvm_op", 
      "name": "relu11", 
      "attrs": {
        "flatten_data": "1", 
        "func_name": "fuse_relu_3", 
        "num_inputs": "1", 
        "num_outputs": "1"
      }, 
      "inputs": [[255, 0, 0]]
    }, 
    {
      "op": "null", 
      "name": "resnetv10_stage3_conv4_weight", 
      "inputs": []
    }, 
    {
      "op": "tvm_op", 
      "name": "conv2d14", 
      "attrs": {
        "flatten_data": "0", 
        "func_name": "fuse_conv2d_7", 
        "num_inputs": "2", 
        "num_outputs": "1"
      }, 
      "inputs": [[256, 0, 0], [257, 0, 0]]
    }, 
    {
      "op": "null", 
      "name": "resnetv10_stage3_batchnorm4_running_var", 
      "inputs": []
    }, 
    {
      "op": "tvm_op", 
      "name": "batch_norm14_add_eps", 
      "attrs": {
        "flatten_data": "1", 
        "func_name": "fuse___add_scalar___2", 
        "num_inputs": "1", 
        "num_outputs": "1"
      }, 
      "inputs": [[259, 0, 0]]
    }, 
    {
      "op": "tvm_op", 
      "name": "batch_norm14_sqrt", 
      "attrs": {
        "flatten_data": "1", 
        "func_name": "fuse_sqrt_2", 
        "num_inputs": "1", 
        "num_outputs": "1"
      }, 
      "inputs": [[260, 0, 0]]
    }, 
    {
      "op": "tvm_op", 
      "name": "batch_norm14_div", 
      "attrs": {
        "flatten_data": "1", 
        "func_name": "fuse___rdiv_scalar___2", 
        "num_inputs": "1", 
        "num_outputs": "1"
      }, 
      "inputs": [[261, 0, 0]]
    }, 
    {
      "op": "null", 
      "name": "resnetv10_stage3_batchnorm4_gamma", 
      "inputs": []
    }, 
    {
      "op": "tvm_op", 
      "name": "batch_norm14_gamma_mul_div", 
      "attrs": {
        "flatten_data": "1", 
        "func_name": "fuse_elemwise_mul_2", 
        "num_inputs": "2", 
        "num_outputs": "1"
      }, 
      "inputs": [[262, 0, 0], [263, 0, 0]]
    }, 
    {
      "op": "tvm_op", 
      "name": "batch_norm14_gamma_mul_div_expand", 
      "attrs": {
        "flatten_data": "0", 
        "func_name": "fuse_expand_dims_2", 
        "num_inputs": "1", 
        "num_outputs": "1"
      }, 
      "inputs": [[264, 0, 0]]
    }, 
    {
      "op": "tvm_op", 
      "name": "batch_norm14_a_mul_data", 
      "attrs": {
        "flatten_data": "0", 
        "func_name": "fuse_broadcast_mul_3", 
        "num_inputs": "2", 
        "num_outputs": "1"
      }, 
      "inputs": [[258, 0, 0], [265, 0, 0]]
    }, 
    {
      "op": "null", 
      "name": "resnetv10_stage3_batchnorm4_running_mean", 
      "inputs": []
    }, 
    {
      "op": "tvm_op", 
      "name": "batch_norm14_neg_mean", 
      "attrs": {
        "flatten_data": "1", 
        "func_name": "fuse_negative_2", 
        "num_inputs": "1", 
        "num_outputs": "1"
      }, 
      "inputs": [[267, 0, 0]]
    }, 
    {
      "op": "tvm_op", 
      "name": "batch_norm14_neg_mean_mul_a", 
      "attrs": {
        "flatten_data": "1", 
        "func_name": "fuse_elemwise_mul_2", 
        "num_inputs": "2", 
        "num_outputs": "1"
      }, 
      "inputs": [[268, 0, 0], [264, 0, 0]]
    }, 
    {
      "op": "null", 
      "name": "resnetv10_stage3_batchnorm4_beta", 
      "inputs": []
    }, 
    {
      "op": "tvm_op", 
      "name": "batch_norm14_add_beta", 
      "attrs": {
        "flatten_data": "1", 
        "func_name": "fuse_elemwise_add_4", 
        "num_inputs": "2", 
        "num_outputs": "1"
      }, 
      "inputs": [[269, 0, 0], [270, 0, 0]]
    }, 
    {
      "op": "tvm_op", 
      "name": "batch_norm14_add_beta_expand", 
      "attrs": {
        "flatten_data": "0", 
        "func_name": "fuse_expand_dims_2", 
        "num_inputs": "1", 
        "num_outputs": "1"
      }, 
      "inputs": [[271, 0, 0]]
    }, 
    {
      "op": "tvm_op", 
      "name": "batch_norm14_out", 
      "attrs": {
        "flatten_data": "0", 
        "func_name": "fuse_broadcast_add_3", 
        "num_inputs": "2", 
        "num_outputs": "1"
      }, 
      "inputs": [[266, 0, 0], [272, 0, 0]]
    }, 
    {
      "op": "tvm_op", 
      "name": "elemwise_add5", 
      "attrs": {
        "flatten_data": "1", 
        "func_name": "fuse_elemwise_add_5", 
        "num_inputs": "2", 
        "num_outputs": "1"
      }, 
      "inputs": [[238, 0, 0], [273, 0, 0]]
    }, 
    {
      "op": "tvm_op", 
      "name": "relu12", 
      "attrs": {
        "flatten_data": "1", 
        "func_name": "fuse_relu_3", 
        "num_inputs": "1", 
        "num_outputs": "1"
      }, 
      "inputs": [[274, 0, 0]]
    }, 
    {
      "op": "null", 
      "name": "resnetv10_stage4_conv2_weight", 
      "inputs": []
    }, 
    {
      "op": "tvm_op", 
      "name": "conv2d15", 
      "attrs": {
        "flatten_data": "0", 
        "func_name": "fuse_conv2d_8", 
        "num_inputs": "2", 
        "num_outputs": "1"
      }, 
      "inputs": [[275, 0, 0], [276, 0, 0]]
    }, 
    {
      "op": "null", 
      "name": "resnetv10_stage4_batchnorm2_running_var", 
      "inputs": []
    }, 
    {
      "op": "tvm_op", 
      "name": "batch_norm15_add_eps", 
      "attrs": {
        "flatten_data": "1", 
        "func_name": "fuse___add_scalar___3", 
        "num_inputs": "1", 
        "num_outputs": "1"
      }, 
      "inputs": [[278, 0, 0]]
    }, 
    {
      "op": "tvm_op", 
      "name": "batch_norm15_sqrt", 
      "attrs": {
        "flatten_data": "1", 
        "func_name": "fuse_sqrt_3", 
        "num_inputs": "1", 
        "num_outputs": "1"
      }, 
      "inputs": [[279, 0, 0]]
    }, 
    {
      "op": "tvm_op", 
      "name": "batch_norm15_div", 
      "attrs": {
        "flatten_data": "1", 
        "func_name": "fuse___rdiv_scalar___3", 
        "num_inputs": "1", 
        "num_outputs": "1"
      }, 
      "inputs": [[280, 0, 0]]
    }, 
    {
      "op": "null", 
      "name": "resnetv10_stage4_batchnorm2_gamma", 
      "inputs": []
    }, 
    {
      "op": "tvm_op", 
      "name": "batch_norm15_gamma_mul_div", 
      "attrs": {
        "flatten_data": "1", 
        "func_name": "fuse_elemwise_mul_3", 
        "num_inputs": "2", 
        "num_outputs": "1"
      }, 
      "inputs": [[281, 0, 0], [282, 0, 0]]
    }, 
    {
      "op": "tvm_op", 
      "name": "batch_norm15_gamma_mul_div_expand", 
      "attrs": {
        "flatten_data": "0", 
        "func_name": "fuse_expand_dims_3", 
        "num_inputs": "1", 
        "num_outputs": "1"
      }, 
      "inputs": [[283, 0, 0]]
    }, 
    {
      "op": "tvm_op", 
      "name": "batch_norm15_a_mul_data", 
      "attrs": {
        "flatten_data": "0", 
        "func_name": "fuse_broadcast_mul_4", 
        "num_inputs": "2", 
        "num_outputs": "1"
      }, 
      "inputs": [[277, 0, 0], [284, 0, 0]]
    }, 
    {
      "op": "null", 
      "name": "resnetv10_stage4_batchnorm2_running_mean", 
      "inputs": []
    }, 
    {
      "op": "tvm_op", 
      "name": "batch_norm15_neg_mean", 
      "attrs": {
        "flatten_data": "1", 
        "func_name": "fuse_negative_3", 
        "num_inputs": "1", 
        "num_outputs": "1"
      }, 
      "inputs": [[286, 0, 0]]
    }, 
    {
      "op": "tvm_op", 
      "name": "batch_norm15_neg_mean_mul_a", 
      "attrs": {
        "flatten_data": "1", 
        "func_name": "fuse_elemwise_mul_3", 
        "num_inputs": "2", 
        "num_outputs": "1"
      }, 
      "inputs": [[287, 0, 0], [283, 0, 0]]
    }, 
    {
      "op": "null", 
      "name": "resnetv10_stage4_batchnorm2_beta", 
      "inputs": []
    }, 
    {
      "op": "tvm_op", 
      "name": "batch_norm15_add_beta", 
      "attrs": {
        "flatten_data": "1", 
        "func_name": "fuse_elemwise_add_6", 
        "num_inputs": "2", 
        "num_outputs": "1"
      }, 
      "inputs": [[288, 0, 0], [289, 0, 0]]
    }, 
    {
      "op": "tvm_op", 
      "name": "batch_norm15_add_beta_expand", 
      "attrs": {
        "flatten_data": "0", 
        "func_name": "fuse_expand_dims_3", 
        "num_inputs": "1", 
        "num_outputs": "1"
      }, 
      "inputs": [[290, 0, 0]]
    }, 
    {
      "op": "tvm_op", 
      "name": "batch_norm15_out", 
      "attrs": {
        "flatten_data": "0", 
        "func_name": "fuse_broadcast_add_4", 
        "num_inputs": "2", 
        "num_outputs": "1"
      }, 
      "inputs": [[285, 0, 0], [291, 0, 0]]
    }, 
    {
      "op": "null", 
      "name": "resnetv10_stage4_conv0_weight", 
      "inputs": []
    }, 
    {
      "op": "tvm_op", 
      "name": "conv2d16", 
      "attrs": {
        "flatten_data": "0", 
        "func_name": "fuse_conv2d_9", 
        "num_inputs": "2", 
        "num_outputs": "1"
      }, 
      "inputs": [[275, 0, 0], [293, 0, 0]]
    }, 
    {
      "op": "null", 
      "name": "resnetv10_stage4_batchnorm0_running_var", 
      "inputs": []
    }, 
    {
      "op": "tvm_op", 
      "name": "batch_norm16_add_eps", 
      "attrs": {
        "flatten_data": "1", 
        "func_name": "fuse___add_scalar___3", 
        "num_inputs": "1", 
        "num_outputs": "1"
      }, 
      "inputs": [[295, 0, 0]]
    }, 
    {
      "op": "tvm_op", 
      "name": "batch_norm16_sqrt", 
      "attrs": {
        "flatten_data": "1", 
        "func_name": "fuse_sqrt_3", 
        "num_inputs": "1", 
        "num_outputs": "1"
      }, 
      "inputs": [[296, 0, 0]]
    }, 
    {
      "op": "tvm_op", 
      "name": "batch_norm16_div", 
      "attrs": {
        "flatten_data": "1", 
        "func_name": "fuse___rdiv_scalar___3", 
        "num_inputs": "1", 
        "num_outputs": "1"
      }, 
      "inputs": [[297, 0, 0]]
    }, 
    {
      "op": "null", 
      "name": "resnetv10_stage4_batchnorm0_gamma", 
      "inputs": []
    }, 
    {
      "op": "tvm_op", 
      "name": "batch_norm16_gamma_mul_div", 
      "attrs": {
        "flatten_data": "1", 
        "func_name": "fuse_elemwise_mul_3", 
        "num_inputs": "2", 
        "num_outputs": "1"
      }, 
      "inputs": [[298, 0, 0], [299, 0, 0]]
    }, 
    {
      "op": "tvm_op", 
      "name": "batch_norm16_gamma_mul_div_expand", 
      "attrs": {
        "flatten_data": "0", 
        "func_name": "fuse_expand_dims_3", 
        "num_inputs": "1", 
        "num_outputs": "1"
      }, 
      "inputs": [[300, 0, 0]]
    }, 
    {
      "op": "tvm_op", 
      "name": "batch_norm16_a_mul_data", 
      "attrs": {
        "flatten_data": "0", 
        "func_name": "fuse_broadcast_mul_4", 
        "num_inputs": "2", 
        "num_outputs": "1"
      }, 
      "inputs": [[294, 0, 0], [301, 0, 0]]
    }, 
    {
      "op": "null", 
      "name": "resnetv10_stage4_batchnorm0_running_mean", 
      "inputs": []
    }, 
    {
      "op": "tvm_op", 
      "name": "batch_norm16_neg_mean", 
      "attrs": {
        "flatten_data": "1", 
        "func_name": "fuse_negative_3", 
        "num_inputs": "1", 
        "num_outputs": "1"
      }, 
      "inputs": [[303, 0, 0]]
    }, 
    {
      "op": "tvm_op", 
      "name": "batch_norm16_neg_mean_mul_a", 
      "attrs": {
        "flatten_data": "1", 
        "func_name": "fuse_elemwise_mul_3", 
        "num_inputs": "2", 
        "num_outputs": "1"
      }, 
      "inputs": [[304, 0, 0], [300, 0, 0]]
    }, 
    {
      "op": "null", 
      "name": "resnetv10_stage4_batchnorm0_beta", 
      "inputs": []
    }, 
    {
      "op": "tvm_op", 
      "name": "batch_norm16_add_beta", 
      "attrs": {
        "flatten_data": "1", 
        "func_name": "fuse_elemwise_add_6", 
        "num_inputs": "2", 
        "num_outputs": "1"
      }, 
      "inputs": [[305, 0, 0], [306, 0, 0]]
    }, 
    {
      "op": "tvm_op", 
      "name": "batch_norm16_add_beta_expand", 
      "attrs": {
        "flatten_data": "0", 
        "func_name": "fuse_expand_dims_3", 
        "num_inputs": "1", 
        "num_outputs": "1"
      }, 
      "inputs": [[307, 0, 0]]
    }, 
    {
      "op": "tvm_op", 
      "name": "batch_norm16_out", 
      "attrs": {
        "flatten_data": "0", 
        "func_name": "fuse_broadcast_add_4", 
        "num_inputs": "2", 
        "num_outputs": "1"
      }, 
      "inputs": [[302, 0, 0], [308, 0, 0]]
    }, 
    {
      "op": "tvm_op", 
      "name": "relu13", 
      "attrs": {
        "flatten_data": "1", 
        "func_name": "fuse_relu_4", 
        "num_inputs": "1", 
        "num_outputs": "1"
      }, 
      "inputs": [[309, 0, 0]]
    }, 
    {
      "op": "null", 
      "name": "resnetv10_stage4_conv1_weight", 
      "inputs": []
    }, 
    {
      "op": "tvm_op", 
      "name": "conv2d17", 
      "attrs": {
        "flatten_data": "0", 
        "func_name": "fuse_conv2d_10", 
        "num_inputs": "2", 
        "num_outputs": "1"
      }, 
      "inputs": [[310, 0, 0], [311, 0, 0]]
    }, 
    {
      "op": "null", 
      "name": "resnetv10_stage4_batchnorm1_running_var", 
      "inputs": []
    }, 
    {
      "op": "tvm_op", 
      "name": "batch_norm17_add_eps", 
      "attrs": {
        "flatten_data": "1", 
        "func_name": "fuse___add_scalar___3", 
        "num_inputs": "1", 
        "num_outputs": "1"
      }, 
      "inputs": [[313, 0, 0]]
    }, 
    {
      "op": "tvm_op", 
      "name": "batch_norm17_sqrt", 
      "attrs": {
        "flatten_data": "1", 
        "func_name": "fuse_sqrt_3", 
        "num_inputs": "1", 
        "num_outputs": "1"
      }, 
      "inputs": [[314, 0, 0]]
    }, 
    {
      "op": "tvm_op", 
      "name": "batch_norm17_div", 
      "attrs": {
        "flatten_data": "1", 
        "func_name": "fuse___rdiv_scalar___3", 
        "num_inputs": "1", 
        "num_outputs": "1"
      }, 
      "inputs": [[315, 0, 0]]
    }, 
    {
      "op": "null", 
      "name": "resnetv10_stage4_batchnorm1_gamma", 
      "inputs": []
    }, 
    {
      "op": "tvm_op", 
      "name": "batch_norm17_gamma_mul_div", 
      "attrs": {
        "flatten_data": "1", 
        "func_name": "fuse_elemwise_mul_3", 
        "num_inputs": "2", 
        "num_outputs": "1"
      }, 
      "inputs": [[316, 0, 0], [317, 0, 0]]
    }, 
    {
      "op": "tvm_op", 
      "name": "batch_norm17_gamma_mul_div_expand", 
      "attrs": {
        "flatten_data": "0", 
        "func_name": "fuse_expand_dims_3", 
        "num_inputs": "1", 
        "num_outputs": "1"
      }, 
      "inputs": [[318, 0, 0]]
    }, 
    {
      "op": "tvm_op", 
      "name": "batch_norm17_a_mul_data", 
      "attrs": {
        "flatten_data": "0", 
        "func_name": "fuse_broadcast_mul_4", 
        "num_inputs": "2", 
        "num_outputs": "1"
      }, 
      "inputs": [[312, 0, 0], [319, 0, 0]]
    }, 
    {
      "op": "null", 
      "name": "resnetv10_stage4_batchnorm1_running_mean", 
      "inputs": []
    }, 
    {
      "op": "tvm_op", 
      "name": "batch_norm17_neg_mean", 
      "attrs": {
        "flatten_data": "1", 
        "func_name": "fuse_negative_3", 
        "num_inputs": "1", 
        "num_outputs": "1"
      }, 
      "inputs": [[321, 0, 0]]
    }, 
    {
      "op": "tvm_op", 
      "name": "batch_norm17_neg_mean_mul_a", 
      "attrs": {
        "flatten_data": "1", 
        "func_name": "fuse_elemwise_mul_3", 
        "num_inputs": "2", 
        "num_outputs": "1"
      }, 
      "inputs": [[322, 0, 0], [318, 0, 0]]
    }, 
    {
      "op": "null", 
      "name": "resnetv10_stage4_batchnorm1_beta", 
      "inputs": []
    }, 
    {
      "op": "tvm_op", 
      "name": "batch_norm17_add_beta", 
      "attrs": {
        "flatten_data": "1", 
        "func_name": "fuse_elemwise_add_6", 
        "num_inputs": "2", 
        "num_outputs": "1"
      }, 
      "inputs": [[323, 0, 0], [324, 0, 0]]
    }, 
    {
      "op": "tvm_op", 
      "name": "batch_norm17_add_beta_expand", 
      "attrs": {
        "flatten_data": "0", 
        "func_name": "fuse_expand_dims_3", 
        "num_inputs": "1", 
        "num_outputs": "1"
      }, 
      "inputs": [[325, 0, 0]]
    }, 
    {
      "op": "tvm_op", 
      "name": "batch_norm17_out", 
      "attrs": {
        "flatten_data": "0", 
        "func_name": "fuse_broadcast_add_4", 
        "num_inputs": "2", 
        "num_outputs": "1"
      }, 
      "inputs": [[320, 0, 0], [326, 0, 0]]
    }, 
    {
      "op": "tvm_op", 
      "name": "elemwise_add6", 
      "attrs": {
        "flatten_data": "1", 
        "func_name": "fuse_elemwise_add_7", 
        "num_inputs": "2", 
        "num_outputs": "1"
      }, 
      "inputs": [[292, 0, 0], [327, 0, 0]]
    }, 
    {
      "op": "tvm_op", 
      "name": "relu14", 
      "attrs": {
        "flatten_data": "1", 
        "func_name": "fuse_relu_4", 
        "num_inputs": "1", 
        "num_outputs": "1"
      }, 
      "inputs": [[328, 0, 0]]
    }, 
    {
      "op": "null", 
      "name": "resnetv10_stage4_conv3_weight", 
      "inputs": []
    }, 
    {
      "op": "tvm_op", 
      "name": "conv2d18", 
      "attrs": {
        "flatten_data": "0", 
        "func_name": "fuse_conv2d_10", 
        "num_inputs": "2", 
        "num_outputs": "1"
      }, 
      "inputs": [[329, 0, 0], [330, 0, 0]]
    }, 
    {
      "op": "null", 
      "name": "resnetv10_stage4_batchnorm3_running_var", 
      "inputs": []
    }, 
    {
      "op": "tvm_op", 
      "name": "batch_norm18_add_eps", 
      "attrs": {
        "flatten_data": "1", 
        "func_name": "fuse___add_scalar___3", 
        "num_inputs": "1", 
        "num_outputs": "1"
      }, 
      "inputs": [[332, 0, 0]]
    }, 
    {
      "op": "tvm_op", 
      "name": "batch_norm18_sqrt", 
      "attrs": {
        "flatten_data": "1", 
        "func_name": "fuse_sqrt_3", 
        "num_inputs": "1", 
        "num_outputs": "1"
      }, 
      "inputs": [[333, 0, 0]]
    }, 
    {
      "op": "tvm_op", 
      "name": "batch_norm18_div", 
      "attrs": {
        "flatten_data": "1", 
        "func_name": "fuse___rdiv_scalar___3", 
        "num_inputs": "1", 
        "num_outputs": "1"
      }, 
      "inputs": [[334, 0, 0]]
    }, 
    {
      "op": "null", 
      "name": "resnetv10_stage4_batchnorm3_gamma", 
      "inputs": []
    }, 
    {
      "op": "tvm_op", 
      "name": "batch_norm18_gamma_mul_div", 
      "attrs": {
        "flatten_data": "1", 
        "func_name": "fuse_elemwise_mul_3", 
        "num_inputs": "2", 
        "num_outputs": "1"
      }, 
      "inputs": [[335, 0, 0], [336, 0, 0]]
    }, 
    {
      "op": "tvm_op", 
      "name": "batch_norm18_gamma_mul_div_expand", 
      "attrs": {
        "flatten_data": "0", 
        "func_name": "fuse_expand_dims_3", 
        "num_inputs": "1", 
        "num_outputs": "1"
      }, 
      "inputs": [[337, 0, 0]]
    }, 
    {
      "op": "tvm_op", 
      "name": "batch_norm18_a_mul_data", 
      "attrs": {
        "flatten_data": "0", 
        "func_name": "fuse_broadcast_mul_4", 
        "num_inputs": "2", 
        "num_outputs": "1"
      }, 
      "inputs": [[331, 0, 0], [338, 0, 0]]
    }, 
    {
      "op": "null", 
      "name": "resnetv10_stage4_batchnorm3_running_mean", 
      "inputs": []
    }, 
    {
      "op": "tvm_op", 
      "name": "batch_norm18_neg_mean", 
      "attrs": {
        "flatten_data": "1", 
        "func_name": "fuse_negative_3", 
        "num_inputs": "1", 
        "num_outputs": "1"
      }, 
      "inputs": [[340, 0, 0]]
    }, 
    {
      "op": "tvm_op", 
      "name": "batch_norm18_neg_mean_mul_a", 
      "attrs": {
        "flatten_data": "1", 
        "func_name": "fuse_elemwise_mul_3", 
        "num_inputs": "2", 
        "num_outputs": "1"
      }, 
      "inputs": [[341, 0, 0], [337, 0, 0]]
    }, 
    {
      "op": "null", 
      "name": "resnetv10_stage4_batchnorm3_beta", 
      "inputs": []
    }, 
    {
      "op": "tvm_op", 
      "name": "batch_norm18_add_beta", 
      "attrs": {
        "flatten_data": "1", 
        "func_name": "fuse_elemwise_add_6", 
        "num_inputs": "2", 
        "num_outputs": "1"
      }, 
      "inputs": [[342, 0, 0], [343, 0, 0]]
    }, 
    {
      "op": "tvm_op", 
      "name": "batch_norm18_add_beta_expand", 
      "attrs": {
        "flatten_data": "0", 
        "func_name": "fuse_expand_dims_3", 
        "num_inputs": "1", 
        "num_outputs": "1"
      }, 
      "inputs": [[344, 0, 0]]
    }, 
    {
      "op": "tvm_op", 
      "name": "batch_norm18_out", 
      "attrs": {
        "flatten_data": "0", 
        "func_name": "fuse_broadcast_add_4", 
        "num_inputs": "2", 
        "num_outputs": "1"
      }, 
      "inputs": [[339, 0, 0], [345, 0, 0]]
    }, 
    {
      "op": "tvm_op", 
      "name": "relu15", 
      "attrs": {
        "flatten_data": "1", 
        "func_name": "fuse_relu_4", 
        "num_inputs": "1", 
        "num_outputs": "1"
      }, 
      "inputs": [[346, 0, 0]]
    }, 
    {
      "op": "null", 
      "name": "resnetv10_stage4_conv4_weight", 
      "inputs": []
    }, 
    {
      "op": "tvm_op", 
      "name": "conv2d19", 
      "attrs": {
        "flatten_data": "0", 
        "func_name": "fuse_conv2d_10", 
        "num_inputs": "2", 
        "num_outputs": "1"
      }, 
      "inputs": [[347, 0, 0], [348, 0, 0]]
    }, 
    {
      "op": "null", 
      "name": "resnetv10_stage4_batchnorm4_running_var", 
      "inputs": []
    }, 
    {
      "op": "tvm_op", 
      "name": "batch_norm19_add_eps", 
      "attrs": {
        "flatten_data": "1", 
        "func_name": "fuse___add_scalar___3", 
        "num_inputs": "1", 
        "num_outputs": "1"
      }, 
      "inputs": [[350, 0, 0]]
    }, 
    {
      "op": "tvm_op", 
      "name": "batch_norm19_sqrt", 
      "attrs": {
        "flatten_data": "1", 
        "func_name": "fuse_sqrt_3", 
        "num_inputs": "1", 
        "num_outputs": "1"
      }, 
      "inputs": [[351, 0, 0]]
    }, 
    {
      "op": "tvm_op", 
      "name": "batch_norm19_div", 
      "attrs": {
        "flatten_data": "1", 
        "func_name": "fuse___rdiv_scalar___3", 
        "num_inputs": "1", 
        "num_outputs": "1"
      }, 
      "inputs": [[352, 0, 0]]
    }, 
    {
      "op": "null", 
      "name": "resnetv10_stage4_batchnorm4_gamma", 
      "inputs": []
    }, 
    {
      "op": "tvm_op", 
      "name": "batch_norm19_gamma_mul_div", 
      "attrs": {
        "flatten_data": "1", 
        "func_name": "fuse_elemwise_mul_3", 
        "num_inputs": "2", 
        "num_outputs": "1"
      }, 
      "inputs": [[353, 0, 0], [354, 0, 0]]
    }, 
    {
      "op": "tvm_op", 
      "name": "batch_norm19_gamma_mul_div_expand", 
      "attrs": {
        "flatten_data": "0", 
        "func_name": "fuse_expand_dims_3", 
        "num_inputs": "1", 
        "num_outputs": "1"
      }, 
      "inputs": [[355, 0, 0]]
    }, 
    {
      "op": "tvm_op", 
      "name": "batch_norm19_a_mul_data", 
      "attrs": {
        "flatten_data": "0", 
        "func_name": "fuse_broadcast_mul_4", 
        "num_inputs": "2", 
        "num_outputs": "1"
      }, 
      "inputs": [[349, 0, 0], [356, 0, 0]]
    }, 
    {
      "op": "null", 
      "name": "resnetv10_stage4_batchnorm4_running_mean", 
      "inputs": []
    }, 
    {
      "op": "tvm_op", 
      "name": "batch_norm19_neg_mean", 
      "attrs": {
        "flatten_data": "1", 
        "func_name": "fuse_negative_3", 
        "num_inputs": "1", 
        "num_outputs": "1"
      }, 
      "inputs": [[358, 0, 0]]
    }, 
    {
      "op": "tvm_op", 
      "name": "batch_norm19_neg_mean_mul_a", 
      "attrs": {
        "flatten_data": "1", 
        "func_name": "fuse_elemwise_mul_3", 
        "num_inputs": "2", 
        "num_outputs": "1"
      }, 
      "inputs": [[359, 0, 0], [355, 0, 0]]
    }, 
    {
      "op": "null", 
      "name": "resnetv10_stage4_batchnorm4_beta", 
      "inputs": []
    }, 
    {
      "op": "tvm_op", 
      "name": "batch_norm19_add_beta", 
      "attrs": {
        "flatten_data": "1", 
        "func_name": "fuse_elemwise_add_6", 
        "num_inputs": "2", 
        "num_outputs": "1"
      }, 
      "inputs": [[360, 0, 0], [361, 0, 0]]
    }, 
    {
      "op": "tvm_op", 
      "name": "batch_norm19_add_beta_expand", 
      "attrs": {
        "flatten_data": "0", 
        "func_name": "fuse_expand_dims_3", 
        "num_inputs": "1", 
        "num_outputs": "1"
      }, 
      "inputs": [[362, 0, 0]]
    }, 
    {
      "op": "tvm_op", 
      "name": "batch_norm19_out", 
      "attrs": {
        "flatten_data": "0", 
        "func_name": "fuse_broadcast_add_4", 
        "num_inputs": "2", 
        "num_outputs": "1"
      }, 
      "inputs": [[357, 0, 0], [363, 0, 0]]
    }, 
    {
      "op": "tvm_op", 
      "name": "elemwise_add7", 
      "attrs": {
        "flatten_data": "1", 
        "func_name": "fuse_elemwise_add_7", 
        "num_inputs": "2", 
        "num_outputs": "1"
      }, 
      "inputs": [[329, 0, 0], [364, 0, 0]]
    }, 
    {
      "op": "tvm_op", 
      "name": "relu16", 
      "attrs": {
        "flatten_data": "1", 
        "func_name": "fuse_relu_4", 
        "num_inputs": "1", 
        "num_outputs": "1"
      }, 
      "inputs": [[365, 0, 0]]
    }, 
    {
      "op": "tvm_op", 
      "name": "global_avg_pool2d0", 
      "attrs": {
        "flatten_data": "0", 
        "func_name": "fuse_global_avg_pool2d", 
        "num_inputs": "1", 
        "num_outputs": "1"
      }, 
      "inputs": [[366, 0, 0]]
    }, 
    {
      "op": "tvm_op", 
      "name": "flatten0", 
      "attrs": {
        "flatten_data": "0", 
        "func_name": "fuse_flatten", 
        "num_inputs": "1", 
        "num_outputs": "1"
      }, 
      "inputs": [[367, 0, 0]]
    }, 
    {
      "op": "null", 
      "name": "resnetv10_dense0_weight", 
      "inputs": []
    }, 
    {
      "op": "null", 
      "name": "resnetv10_dense0_bias", 
      "inputs": []
    }, 
    {
      "op": "tvm_op", 
      "name": "dense0", 
      "attrs": {
        "flatten_data": "0", 
        "func_name": "fuse_dense", 
        "num_inputs": "3", 
        "num_outputs": "1"
      }, 
      "inputs": [[368, 0, 0], [369, 0, 0], [370, 0, 0]]
    }, 
    {
      "op": "tvm_op", 
      "name": "softmax0", 
      "attrs": {
        "flatten_data": "0", 
        "func_name": "fuse_softmax", 
        "num_inputs": "1", 
        "num_outputs": "1"
      }, 
      "inputs": [[371, 0, 0]]
    }
  ], 
  "arg_nodes": [
    0, 
    1, 
    3, 
    7, 
    11, 
    14, 
    20, 
    22, 
    26, 
    30, 
    33, 
    38, 
    40, 
    44, 
    48, 
    51, 
    57, 
    59, 
    63, 
    67, 
    70, 
    75, 
    77, 
    81, 
    85, 
    88, 
    94, 
    96, 
    100, 
    104, 
    107, 
    111, 
    113, 
    117, 
    121, 
    124, 
    129, 
    131, 
    135, 
    139, 
    142, 
    148, 
    150, 
    154, 
    158, 
    161, 
    166, 
    168, 
    172, 
    176, 
    179, 
    185, 
    187, 
    191, 
    195, 
    198, 
    202, 
    204, 
    208, 
    212, 
    215, 
    220, 
    222, 
    226, 
    230, 
    233, 
    239, 
    241, 
    245, 
    249, 
    252, 
    257, 
    259, 
    263, 
    267, 
    270, 
    276, 
    278, 
    282, 
    286, 
    289, 
    293, 
    295, 
    299, 
    303, 
    306, 
    311, 
    313, 
    317, 
    321, 
    324, 
    330, 
    332, 
    336, 
    340, 
    343, 
    348, 
    350, 
    354, 
    358, 
    361, 
    369, 
    370
  ], 
  "node_row_ptr": [
    0, 
    1, 
    2, 
    3, 
    4, 
    5, 
    6, 
    7, 
    8, 
    9, 
    10, 
    11, 
    12, 
    13, 
    14, 
    15, 
    16, 
    17, 
    18, 
    19, 
    20, 
    21, 
    22, 
    23, 
    24, 
    25, 
    26, 
    27, 
    28, 
    29, 
    30, 
    31, 
    32, 
    33, 
    34, 
    35, 
    36, 
    37, 
    38, 
    39, 
    40, 
    41, 
    42, 
    43, 
    44, 
    45, 
    46, 
    47, 
    48, 
    49, 
    50, 
    51, 
    52, 
    53, 
    54, 
    55, 
    56, 
    57, 
    58, 
    59, 
    60, 
    61, 
    62, 
    63, 
    64, 
    65, 
    66, 
    67, 
    68, 
    69, 
    70, 
    71, 
    72, 
    73, 
    74, 
    75, 
    76, 
    77, 
    78, 
    79, 
    80, 
    81, 
    82, 
    83, 
    84, 
    85, 
    86, 
    87, 
    88, 
    89, 
    90, 
    91, 
    92, 
    93, 
    94, 
    95, 
    96, 
    97, 
    98, 
    99, 
    100, 
    101, 
    102, 
    103, 
    104, 
    105, 
    106, 
    107, 
    108, 
    109, 
    110, 
    111, 
    112, 
    113, 
    114, 
    115, 
    116, 
    117, 
    118, 
    119, 
    120, 
    121, 
    122, 
    123, 
    124, 
    125, 
    126, 
    127, 
    128, 
    129, 
    130, 
    131, 
    132, 
    133, 
    134, 
    135, 
    136, 
    137, 
    138, 
    139, 
    140, 
    141, 
    142, 
    143, 
    144, 
    145, 
    146, 
    147, 
    148, 
    149, 
    150, 
    151, 
    152, 
    153, 
    154, 
    155, 
    156, 
    157, 
    158, 
    159, 
    160, 
    161, 
    162, 
    163, 
    164, 
    165, 
    166, 
    167, 
    168, 
    169, 
    170, 
    171, 
    172, 
    173, 
    174, 
    175, 
    176, 
    177, 
    178, 
    179, 
    180, 
    181, 
    182, 
    183, 
    184, 
    185, 
    186, 
    187, 
    188, 
    189, 
    190, 
    191, 
    192, 
    193, 
    194, 
    195, 
    196, 
    197, 
    198, 
    199, 
    200, 
    201, 
    202, 
    203, 
    204, 
    205, 
    206, 
    207, 
    208, 
    209, 
    210, 
    211, 
    212, 
    213, 
    214, 
    215, 
    216, 
    217, 
    218, 
    219, 
    220, 
    221, 
    222, 
    223, 
    224, 
    225, 
    226, 
    227, 
    228, 
    229, 
    230, 
    231, 
    232, 
    233, 
    234, 
    235, 
    236, 
    237, 
    238, 
    239, 
    240, 
    241, 
    242, 
    243, 
    244, 
    245, 
    246, 
    247, 
    248, 
    249, 
    250, 
    251, 
    252, 
    253, 
    254, 
    255, 
    256, 
    257, 
    258, 
    259, 
    260, 
    261, 
    262, 
    263, 
    264, 
    265, 
    266, 
    267, 
    268, 
    269, 
    270, 
    271, 
    272, 
    273, 
    274, 
    275, 
    276, 
    277, 
    278, 
    279, 
    280, 
    281, 
    282, 
    283, 
    284, 
    285, 
    286, 
    287, 
    288, 
    289, 
    290, 
    291, 
    292, 
    293, 
    294, 
    295, 
    296, 
    297, 
    298, 
    299, 
    300, 
    301, 
    302, 
    303, 
    304, 
    305, 
    306, 
    307, 
    308, 
    309, 
    310, 
    311, 
    312, 
    313, 
    314, 
    315, 
    316, 
    317, 
    318, 
    319, 
    320, 
    321, 
    322, 
    323, 
    324, 
    325, 
    326, 
    327, 
    328, 
    329, 
    330, 
    331, 
    332, 
    333, 
    334, 
    335, 
    336, 
    337, 
    338, 
    339, 
    340, 
    341, 
    342, 
    343, 
    344, 
    345, 
    346, 
    347, 
    348, 
    349, 
    350, 
    351, 
    352, 
    353, 
    354, 
    355, 
    356, 
    357, 
    358, 
    359, 
    360, 
    361, 
    362, 
    363, 
    364, 
    365, 
    366, 
    367, 
    368, 
    369, 
    370, 
    371, 
    372, 
    373
  ], 
  "heads": [[372, 0, 0]], 
  "attrs": {
    "storage_allocated_bytes": ["size_t", 7436096], 
    "storage_id": ["list_int", [
        -1, 
        -1, 
        0, 
        -1, 
        1, 
        2, 
        1, 
        -1, 
        2, 
        1, 
        3, 
        -1, 
        1, 
        4, 
        -1, 
        1, 
        2, 
        0, 
        3, 
        0, 
        -1, 
        3, 
        -1, 
        4, 
        1, 
        2, 
        -1, 
        4, 
        1, 
        5, 
        -1, 
        2, 
        1, 
        -1, 
        2, 
        4, 
        3, 
        5, 
        -1, 
        3, 
        -1, 
        1, 
        2, 
        4, 
        -1, 
        1, 
        2, 
        5, 
        -1, 
        4, 
        2, 
        -1, 
        4, 
        1, 
        3, 
        5, 
        0, 
        -1, 
        5, 
        -1, 
        2, 
        4, 
        1, 
        -1, 
        2, 
        4, 
        3, 
        -1, 
        1, 
        4, 
        -1, 
        1, 
        2, 
        5, 
        3, 
        -1, 
        5, 
        -1, 
        4, 
        1, 
        2, 
        -1, 
        4, 
        1, 
        3, 
        -1, 
        2, 
        1, 
        -1, 
        2, 
        4, 
        5, 
        3, 
        5, 
        -1, 
        0, 
        -1, 
        4, 
        2, 
        4, 
        -1, 
        2, 
        4, 
        3, 
        -1, 
        4, 
        1, 
        -1, 
        4, 
        2, 
        0, 
        -1, 
        3, 
        -1, 
        1, 
        4, 
        2, 
        -1, 
        1, 
        4, 
        5, 
        -1, 
        2, 
        4, 
        -1, 
        2, 
        1, 
        3, 
        5, 
        -1, 
        3, 
        -1, 
        4, 
        2, 
        1, 
        -1, 
        4, 
        2, 
        5, 
        -1, 
        1, 
        2, 
        -1, 
        1, 
        4, 
        3, 
        5, 
        0, 
        -1, 
        5, 
        -1, 
        2, 
        1, 
        4, 
        -1, 
        2, 
        1, 
        3, 
        -1, 
        4, 
        1, 
        -1, 
        4, 
        2, 
        5, 
        3, 
        -1, 
        5, 
        -1, 
        1, 
        4, 
        2, 
        -1, 
        1, 
        4, 
        3, 
        -1, 
        2, 
        4, 
        -1, 
        2, 
        1, 
        5, 
        3, 
        5, 
        -1, 
        0, 
        -1, 
        1, 
        2, 
        1, 
        -1, 
        2, 
        1, 
        3, 
        -1, 
        1, 
        4, 
        -1, 
        1, 
        2, 
        0, 
        -1, 
        3, 
        -1, 
        4, 
        1, 
        2, 
        -1, 
        4, 
        1, 
        5, 
        -1, 
        2, 
        1, 
        -1, 
        2, 
        4, 
        3, 
        5, 
        -1, 
        3, 
        -1, 
        1, 
        2, 
        4, 
        -1, 
        1, 
        2, 
        5, 
        -1, 
        4, 
        2, 
        -1, 
        4, 
        1, 
        3, 
        5, 
        0, 
        -1, 
        5, 
        -1, 
        2, 
        4, 
        1, 
        -1, 
        2, 
        4, 
        3, 
        -1, 
        1, 
        4, 
        -1, 
        1, 
        2, 
        5, 
        3, 
        -1, 
        5, 
        -1, 
        4, 
        1, 
        2, 
        -1, 
        4, 
        1, 
        3, 
        -1, 
        2, 
        1, 
        -1, 
        2, 
        4, 
        5, 
        3, 
        5, 
        -1, 
        6, 
        -1, 
        4, 
        2, 
        4, 
        -1, 
        2, 
        4, 
        7, 
        -1, 
        4, 
        1, 
        -1, 
        4, 
        2, 
        6, 
        -1, 
        7, 
        -1, 
        1, 
        4, 
        2, 
        -1, 
        1, 
        4, 
        5, 
        -1, 
        2, 
        4, 
        -1, 
        2, 
        1, 
        7, 
        5, 
        -1, 
        7, 
        -1, 
        4, 
        2, 
        1, 
        -1, 
        4, 
        2, 
        5, 
        -1, 
        1, 
        2, 
        -1, 
        1, 
        4, 
        7, 
        5, 
        6, 
        -1, 
        7, 
        -1, 
        2, 
        1, 
        4, 
        -1, 
        2, 
        1, 
        5, 
        -1, 
        4, 
        1, 
        -1, 
        4, 
        2, 
        7, 
        5, 
        -1, 
        7, 
        -1, 
        1, 
        4, 
        2, 
        -1, 
        1, 
        4, 
        5, 
        -1, 
        2, 
        4, 
        -1, 
        2, 
        1, 
        7, 
        5, 
        6, 
        4, 
        2, 
        -1, 
        -1, 
        4, 
        2]], 
    "storage_inplace_index": ["list_int", [
        -1, 
        -1, 
        -1, 
        -1, 
        -1, 
        -1, 
        -1, 
        -1, 
        -1, 
        -1, 
        -1, 
        -1, 
        -1, 
        -1, 
        -1, 
        -1, 
        -1, 
        -1, 
        -1, 
        -1, 
        -1, 
        -1, 
        -1, 
        -1, 
        -1, 
        -1, 
        -1, 
        -1, 
        -1, 
        -1, 
        -1, 
        -1, 
        -1, 
        -1, 
        -1, 
        -1, 
        -1, 
        -1, 
        -1, 
        -1, 
        -1, 
        -1, 
        -1, 
        -1, 
        -1, 
        -1, 
        -1, 
        -1, 
        -1, 
        -1, 
        -1, 
        -1, 
        -1, 
        -1, 
        -1, 
        -1, 
        -1, 
        -1, 
        -1, 
        -1, 
        -1, 
        -1, 
        -1, 
        -1, 
        -1, 
        -1, 
        -1, 
        -1, 
        -1, 
        -1, 
        -1, 
        -1, 
        -1, 
        -1, 
        -1, 
        -1, 
        -1, 
        -1, 
        -1, 
        -1, 
        -1, 
        -1, 
        -1, 
        -1, 
        -1, 
        -1, 
        -1, 
        -1, 
        -1, 
        -1, 
        -1, 
        -1, 
        -1, 
        -1, 
        -1, 
        -1, 
        -1, 
        -1, 
        -1, 
        -1, 
        -1, 
        -1, 
        -1, 
        -1, 
        -1, 
        -1, 
        -1, 
        -1, 
        -1, 
        -1, 
        -1, 
        -1, 
        -1, 
        -1, 
        -1, 
        -1, 
        -1, 
        -1, 
        -1, 
        -1, 
        -1, 
        -1, 
        -1, 
        -1, 
        -1, 
        -1, 
        -1, 
        -1, 
        -1, 
        -1, 
        -1, 
        -1, 
        -1, 
        -1, 
        -1, 
        -1, 
        -1, 
        -1, 
        -1, 
        -1, 
        -1, 
        -1, 
        -1, 
        -1, 
        -1, 
        -1, 
        -1, 
        -1, 
        -1, 
        -1, 
        -1, 
        -1, 
        -1, 
        -1, 
        -1, 
        -1, 
        -1, 
        -1, 
        -1, 
        -1, 
        -1, 
        -1, 
        -1, 
        -1, 
        -1, 
        -1, 
        -1, 
        -1, 
        -1, 
        -1, 
        -1, 
        -1, 
        -1, 
        -1, 
        -1, 
        -1, 
        -1, 
        -1, 
        -1, 
        -1, 
        -1, 
        -1, 
        -1, 
        -1, 
        -1, 
        -1, 
        -1, 
        -1, 
        -1, 
        -1, 
        -1, 
        -1, 
        -1, 
        -1, 
        -1, 
        -1, 
        -1, 
        -1, 
        -1, 
        -1, 
        -1, 
        -1, 
        -1, 
        -1, 
        -1, 
        -1, 
        -1, 
        -1, 
        -1, 
        -1, 
        -1, 
        -1, 
        -1, 
        -1, 
        -1, 
        -1, 
        -1, 
        -1, 
        -1, 
        -1, 
        -1, 
        -1, 
        -1, 
        -1, 
        -1, 
        -1, 
        -1, 
        -1, 
        -1, 
        -1, 
        -1, 
        -1, 
        -1, 
        -1, 
        -1, 
        -1, 
        -1, 
        -1, 
        -1, 
        -1, 
        -1, 
        -1, 
        -1, 
        -1, 
        -1, 
        -1, 
        -1, 
        -1, 
        -1, 
        -1, 
        -1, 
        -1, 
        -1, 
        -1, 
        -1, 
        -1, 
        -1, 
        -1, 
        -1, 
        -1, 
        -1, 
        -1, 
        -1, 
        -1, 
        -1, 
        -1, 
        -1, 
        -1, 
        -1, 
        -1, 
        -1, 
        -1, 
        -1, 
        -1, 
        -1, 
        -1, 
        -1, 
        -1, 
        -1, 
        -1, 
        -1, 
        -1, 
        -1, 
        -1, 
        -1, 
        -1, 
        -1, 
        -1, 
        -1, 
        -1, 
        -1, 
        -1, 
        -1, 
        -1, 
        -1, 
        -1, 
        -1, 
        -1, 
        -1, 
        -1, 
        -1, 
        -1, 
        -1, 
        -1, 
        -1, 
        -1, 
        -1, 
        -1, 
        -1, 
        -1, 
        -1, 
        -1, 
        -1, 
        -1, 
        -1, 
        -1, 
        -1, 
        -1, 
        -1, 
        -1, 
        -1, 
        -1, 
        -1, 
        -1, 
        -1, 
        -1, 
        -1, 
        -1, 
        -1, 
        -1, 
        -1, 
        -1, 
        -1, 
        -1, 
        -1, 
        -1, 
        -1, 
        -1, 
        -1, 
        -1, 
        -1, 
        -1, 
        -1, 
        -1, 
        -1, 
        -1, 
        -1, 
        -1, 
        -1, 
        -1, 
        -1, 
        -1, 
        -1, 
        -1, 
        -1, 
        -1, 
        -1, 
        -1, 
        -1, 
        -1, 
        -1, 
        -1, 
        -1, 
        -1, 
        -1, 
        -1, 
        -1, 
        -1, 
        -1, 
        -1, 
        -1, 
        -1, 
        -1]], 
    "shape": ["list_shape", [
        [1, 3, 224, 224], 
        [64, 3, 7, 7], 
        [1, 64, 112, 112], 
        [64], 
        [64], 
        [64], 
        [64], 
        [64], 
        [64], 
        [64, 1, 1], 
        [1, 64, 112, 112], 
        [64], 
        [64], 
        [64], 
        [64], 
        [64], 
        [64, 1, 1], 
        [1, 64, 112, 112], 
        [1, 64, 112, 112], 
        [1, 64, 56, 56], 
        [64, 64, 3, 3], 
        [1, 64, 56, 56], 
        [64], 
        [64], 
        [64], 
        [64], 
        [64], 
        [64], 
        [64, 1, 1], 
        [1, 64, 56, 56], 
        [64], 
        [64], 
        [64], 
        [64], 
        [64], 
        [64, 1, 1], 
        [1, 64, 56, 56], 
        [1, 64, 56, 56], 
        [64, 64, 3, 3], 
        [1, 64, 56, 56], 
        [64], 
        [64], 
        [64], 
        [64], 
        [64], 
        [64], 
        [64, 1, 1], 
        [1, 64, 56, 56], 
        [64], 
        [64], 
        [64], 
        [64], 
        [64], 
        [64, 1, 1], 
        [1, 64, 56, 56], 
        [1, 64, 56, 56], 
        [1, 64, 56, 56], 
        [64, 64, 3, 3], 
        [1, 64, 56, 56], 
        [64], 
        [64], 
        [64], 
        [64], 
        [64], 
        [64], 
        [64, 1, 1], 
        [1, 64, 56, 56], 
        [64], 
        [64], 
        [64], 
        [64], 
        [64], 
        [64, 1, 1], 
        [1, 64, 56, 56], 
        [1, 64, 56, 56], 
        [64, 64, 3, 3], 
        [1, 64, 56, 56], 
        [64], 
        [64], 
        [64], 
        [64], 
        [64], 
        [64], 
        [64, 1, 1], 
        [1, 64, 56, 56], 
        [64], 
        [64], 
        [64], 
        [64], 
        [64], 
        [64, 1, 1], 
        [1, 64, 56, 56], 
        [1, 64, 56, 56], 
        [1, 64, 56, 56], 
        [128, 64, 1, 1], 
        [1, 128, 28, 28], 
        [128], 
        [128], 
        [128], 
        [128], 
        [128], 
        [128], 
        [128, 1, 1], 
        [1, 128, 28, 28], 
        [128], 
        [128], 
        [128], 
        [128], 
        [128], 
        [128, 1, 1], 
        [1, 128, 28, 28], 
        [128, 64, 3, 3], 
        [1, 128, 28, 28], 
        [128], 
        [128], 
        [128], 
        [128], 
        [128], 
        [128], 
        [128, 1, 1], 
        [1, 128, 28, 28], 
        [128], 
        [128], 
        [128], 
        [128], 
        [128], 
        [128, 1, 1], 
        [1, 128, 28, 28], 
        [1, 128, 28, 28], 
        [128, 128, 3, 3], 
        [1, 128, 28, 28], 
        [128], 
        [128], 
        [128], 
        [128], 
        [128], 
        [128], 
        [128, 1, 1], 
        [1, 128, 28, 28], 
        [128], 
        [128], 
        [128], 
        [128], 
        [128], 
        [128, 1, 1], 
        [1, 128, 28, 28], 
        [1, 128, 28, 28], 
        [1, 128, 28, 28], 
        [128, 128, 3, 3], 
        [1, 128, 28, 28], 
        [128], 
        [128], 
        [128], 
        [128], 
        [128], 
        [128], 
        [128, 1, 1], 
        [1, 128, 28, 28], 
        [128], 
        [128], 
        [128], 
        [128], 
        [128], 
        [128, 1, 1], 
        [1, 128, 28, 28], 
        [1, 128, 28, 28], 
        [128, 128, 3, 3], 
        [1, 128, 28, 28], 
        [128], 
        [128], 
        [128], 
        [128], 
        [128], 
        [128], 
        [128, 1, 1], 
        [1, 128, 28, 28], 
        [128], 
        [128], 
        [128], 
        [128], 
        [128], 
        [128, 1, 1], 
        [1, 128, 28, 28], 
        [1, 128, 28, 28], 
        [1, 128, 28, 28], 
        [256, 128, 1, 1], 
        [1, 256, 14, 14], 
        [256], 
        [256], 
        [256], 
        [256], 
        [256], 
        [256], 
        [256, 1, 1], 
        [1, 256, 14, 14], 
        [256], 
        [256], 
        [256], 
        [256], 
        [256], 
        [256, 1, 1], 
        [1, 256, 14, 14], 
        [256, 128, 3, 3], 
        [1, 256, 14, 14], 
        [256], 
        [256], 
        [256], 
        [256], 
        [256], 
        [256], 
        [256, 1, 1], 
        [1, 256, 14, 14], 
        [256], 
        [256], 
        [256], 
        [256], 
        [256], 
        [256, 1, 1], 
        [1, 256, 14, 14], 
        [1, 256, 14, 14], 
        [256, 256, 3, 3], 
        [1, 256, 14, 14], 
        [256], 
        [256], 
        [256], 
        [256], 
        [256], 
        [256], 
        [256, 1, 1], 
        [1, 256, 14, 14], 
        [256], 
        [256], 
        [256], 
        [256], 
        [256], 
        [256, 1, 1], 
        [1, 256, 14, 14], 
        [1, 256, 14, 14], 
        [1, 256, 14, 14], 
        [256, 256, 3, 3], 
        [1, 256, 14, 14], 
        [256], 
        [256], 
        [256], 
        [256], 
        [256], 
        [256], 
        [256, 1, 1], 
        [1, 256, 14, 14], 
        [256], 
        [256], 
        [256], 
        [256], 
        [256], 
        [256, 1, 1], 
        [1, 256, 14, 14], 
        [1, 256, 14, 14], 
        [256, 256, 3, 3], 
        [1, 256, 14, 14], 
        [256], 
        [256], 
        [256], 
        [256], 
        [256], 
        [256], 
        [256, 1, 1], 
        [1, 256, 14, 14], 
        [256], 
        [256], 
        [256], 
        [256], 
        [256], 
        [256, 1, 1], 
        [1, 256, 14, 14], 
        [1, 256, 14, 14], 
        [1, 256, 14, 14], 
        [512, 256, 1, 1], 
        [1, 512, 7, 7], 
        [512], 
        [512], 
        [512], 
        [512], 
        [512], 
        [512], 
        [512, 1, 1], 
        [1, 512, 7, 7], 
        [512], 
        [512], 
        [512], 
        [512], 
        [512], 
        [512, 1, 1], 
        [1, 512, 7, 7], 
        [512, 256, 3, 3], 
        [1, 512, 7, 7], 
        [512], 
        [512], 
        [512], 
        [512], 
        [512], 
        [512], 
        [512, 1, 1], 
        [1, 512, 7, 7], 
        [512], 
        [512], 
        [512], 
        [512], 
        [512], 
        [512, 1, 1], 
        [1, 512, 7, 7], 
        [1, 512, 7, 7], 
        [512, 512, 3, 3], 
        [1, 512, 7, 7], 
        [512], 
        [512], 
        [512], 
        [512], 
        [512], 
        [512], 
        [512, 1, 1], 
        [1, 512, 7, 7], 
        [512], 
        [512], 
        [512], 
        [512], 
        [512], 
        [512, 1, 1], 
        [1, 512, 7, 7], 
        [1, 512, 7, 7], 
        [1, 512, 7, 7], 
        [512, 512, 3, 3], 
        [1, 512, 7, 7], 
        [512], 
        [512], 
        [512], 
        [512], 
        [512], 
        [512], 
        [512, 1, 1], 
        [1, 512, 7, 7], 
        [512], 
        [512], 
        [512], 
        [512], 
        [512], 
        [512, 1, 1], 
        [1, 512, 7, 7], 
        [1, 512, 7, 7], 
        [512, 512, 3, 3], 
        [1, 512, 7, 7], 
        [512], 
        [512], 
        [512], 
        [512], 
        [512], 
        [512], 
        [512, 1, 1], 
        [1, 512, 7, 7], 
        [512], 
        [512], 
        [512], 
        [512], 
        [512], 
        [512, 1, 1], 
        [1, 512, 7, 7], 
        [1, 512, 7, 7], 
        [1, 512, 7, 7], 
        [1, 512, 1, 1], 
        [1, 512], 
        [1000, 512], 
        [1000], 
        [1, 1000], 
        [1, 1000]]], 
    "dtype": ["list_int", [
        0, 
        0, 
        0, 
        0, 
        0, 
        0, 
        0, 
        0, 
        0, 
        0, 
        0, 
        0, 
        0, 
        0, 
        0, 
        0, 
        0, 
        0, 
        0, 
        0, 
        0, 
        0, 
        0, 
        0, 
        0, 
        0, 
        0, 
        0, 
        0, 
        0, 
        0, 
        0, 
        0, 
        0, 
        0, 
        0, 
        0, 
        0, 
        0, 
        0, 
        0, 
        0, 
        0, 
        0, 
        0, 
        0, 
        0, 
        0, 
        0, 
        0, 
        0, 
        0, 
        0, 
        0, 
        0, 
        0, 
        0, 
        0, 
        0, 
        0, 
        0, 
        0, 
        0, 
        0, 
        0, 
        0, 
        0, 
        0, 
        0, 
        0, 
        0, 
        0, 
        0, 
        0, 
        0, 
        0, 
        0, 
        0, 
        0, 
        0, 
        0, 
        0, 
        0, 
        0, 
        0, 
        0, 
        0, 
        0, 
        0, 
        0, 
        0, 
        0, 
        0, 
        0, 
        0, 
        0, 
        0, 
        0, 
        0, 
        0, 
        0, 
        0, 
        0, 
        0, 
        0, 
        0, 
        0, 
        0, 
        0, 
        0, 
        0, 
        0, 
        0, 
        0, 
        0, 
        0, 
        0, 
        0, 
        0, 
        0, 
        0, 
        0, 
        0, 
        0, 
        0, 
        0, 
        0, 
        0, 
        0, 
        0, 
        0, 
        0, 
        0, 
        0, 
        0, 
        0, 
        0, 
        0, 
        0, 
        0, 
        0, 
        0, 
        0, 
        0, 
        0, 
        0, 
        0, 
        0, 
        0, 
        0, 
        0, 
        0, 
        0, 
        0, 
        0, 
        0, 
        0, 
        0, 
        0, 
        0, 
        0, 
        0, 
        0, 
        0, 
        0, 
        0, 
        0, 
        0, 
        0, 
        0, 
        0, 
        0, 
        0, 
        0, 
        0, 
        0, 
        0, 
        0, 
        0, 
        0, 
        0, 
        0, 
        0, 
        0, 
        0, 
        0, 
        0, 
        0, 
        0, 
        0, 
        0, 
        0, 
        0, 
        0, 
        0, 
        0, 
        0, 
        0, 
        0, 
        0, 
        0, 
        0, 
        0, 
        0, 
        0, 
        0, 
        0, 
        0, 
        0, 
        0, 
        0, 
        0, 
        0, 
        0, 
        0, 
        0, 
        0, 
        0, 
        0, 
        0, 
        0, 
        0, 
        0, 
        0, 
        0, 
        0, 
        0, 
        0, 
        0, 
        0, 
        0, 
        0, 
        0, 
        0, 
        0, 
        0, 
        0, 
        0, 
        0, 
        0, 
        0, 
        0, 
        0, 
        0, 
        0, 
        0, 
        0, 
        0, 
        0, 
        0, 
        0, 
        0, 
        0, 
        0, 
        0, 
        0, 
        0, 
        0, 
        0, 
        0, 
        0, 
        0, 
        0, 
        0, 
        0, 
        0, 
        0, 
        0, 
        0, 
        0, 
        0, 
        0, 
        0, 
        0, 
        0, 
        0, 
        0, 
        0, 
        0, 
        0, 
        0, 
        0, 
        0, 
        0, 
        0, 
        0, 
        0, 
        0, 
        0, 
        0, 
        0, 
        0, 
        0, 
        0, 
        0, 
        0, 
        0, 
        0, 
        0, 
        0, 
        0, 
        0, 
        0, 
        0, 
        0, 
        0, 
        0, 
        0, 
        0, 
        0, 
        0, 
        0, 
        0, 
        0, 
        0, 
        0, 
        0, 
        0, 
        0, 
        0, 
        0, 
        0, 
        0, 
        0, 
        0, 
        0, 
        0, 
        0, 
        0, 
        0, 
        0, 
        0, 
        0, 
        0, 
        0, 
        0, 
        0, 
        0, 
        0, 
        0, 
        0, 
        0, 
        0, 
        0, 
        0, 
        0, 
        0, 
        0, 
        0, 
        0, 
        0, 
        0, 
        0, 
        0, 
        0, 
        0, 
        0, 
        0, 
        0, 
        0, 
        0, 
        0, 
        0, 
        0, 
        0, 
        0, 
        0, 
        0, 
        0, 
        0, 
        0, 
        0, 
        0]], 
    "storage_num_not_allocated": ["size_t", 0], 
    "dltype": ["list_str", [
        "float32", 
        "float32", 
        "float32", 
        "float32", 
        "float32", 
        "float32", 
        "float32", 
        "float32", 
        "float32", 
        "float32", 
        "float32", 
        "float32", 
        "float32", 
        "float32", 
        "float32", 
        "float32", 
        "float32", 
        "float32", 
        "float32", 
        "float32", 
        "float32", 
        "float32", 
        "float32", 
        "float32", 
        "float32", 
        "float32", 
        "float32", 
        "float32", 
        "float32", 
        "float32", 
        "float32", 
        "float32", 
        "float32", 
        "float32", 
        "float32", 
        "float32", 
        "float32", 
        "float32", 
        "float32", 
        "float32", 
        "float32", 
        "float32", 
        "float32", 
        "float32", 
        "float32", 
        "float32", 
        "float32", 
        "float32", 
        "float32", 
        "float32", 
        "float32", 
        "float32", 
        "float32", 
        "float32", 
        "float32", 
        "float32", 
        "float32", 
        "float32", 
        "float32", 
        "float32", 
        "float32", 
        "float32", 
        "float32", 
        "float32", 
        "float32", 
        "float32", 
        "float32", 
        "float32", 
        "float32", 
        "float32", 
        "float32", 
        "float32", 
        "float32", 
        "float32", 
        "float32", 
        "float32", 
        "float32", 
        "float32", 
        "float32", 
        "float32", 
        "float32", 
        "float32", 
        "float32", 
        "float32", 
        "float32", 
        "float32", 
        "float32", 
        "float32", 
        "float32", 
        "float32", 
        "float32", 
        "float32", 
        "float32", 
        "float32", 
        "float32", 
        "float32", 
        "float32", 
        "float32", 
        "float32", 
        "float32", 
        "float32", 
        "float32", 
        "float32", 
        "float32", 
        "float32", 
        "float32", 
        "float32", 
        "float32", 
        "float32", 
        "float32", 
        "float32", 
        "float32", 
        "float32", 
        "float32", 
        "float32", 
        "float32", 
        "float32", 
        "float32", 
        "float32", 
        "float32", 
        "float32", 
        "float32", 
        "float32", 
        "float32", 
        "float32", 
        "float32", 
        "float32", 
        "float32", 
        "float32", 
        "float32", 
        "float32", 
        "float32", 
        "float32", 
        "float32", 
        "float32", 
        "float32", 
        "float32", 
        "float32", 
        "float32", 
        "float32", 
        "float32", 
        "float32", 
        "float32", 
        "float32", 
        "float32", 
        "float32", 
        "float32", 
        "float32", 
        "float32", 
        "float32", 
        "float32", 
        "float32", 
        "float32", 
        "float32", 
        "float32", 
        "float32", 
        "float32", 
        "float32", 
        "float32", 
        "float32", 
        "float32", 
        "float32", 
        "float32", 
        "float32", 
        "float32", 
        "float32", 
        "float32", 
        "float32", 
        "float32", 
        "float32", 
        "float32", 
        "float32", 
        "float32", 
        "float32", 
        "float32", 
        "float32", 
        "float32", 
        "float32", 
        "float32", 
        "float32", 
        "float32", 
        "float32", 
        "float32", 
        "float32", 
        "float32", 
        "float32", 
        "float32", 
        "float32", 
        "float32", 
        "float32", 
        "float32", 
        "float32", 
        "float32", 
        "float32", 
        "float32", 
        "float32", 
        "float32", 
        "float32", 
        "float32", 
        "float32", 
        "float32", 
        "float32", 
        "float32", 
        "float32", 
        "float32", 
        "float32", 
        "float32", 
        "float32", 
        "float32", 
        "float32", 
        "float32", 
        "float32", 
        "float32", 
        "float32", 
        "float32", 
        "float32", 
        "float32", 
        "float32", 
        "float32", 
        "float32", 
        "float32", 
        "float32", 
        "float32", 
        "float32", 
        "float32", 
        "float32", 
        "float32", 
        "float32", 
        "float32", 
        "float32", 
        "float32", 
        "float32", 
        "float32", 
        "float32", 
        "float32", 
        "float32", 
        "float32", 
        "float32", 
        "float32", 
        "float32", 
        "float32", 
        "float32", 
        "float32", 
        "float32", 
        "float32", 
        "float32", 
        "float32", 
        "float32", 
        "float32", 
        "float32", 
        "float32", 
        "float32", 
        "float32", 
        "float32", 
        "float32", 
        "float32", 
        "float32", 
        "float32", 
        "float32", 
        "float32", 
        "float32", 
        "float32", 
        "float32", 
        "float32", 
        "float32", 
        "float32", 
        "float32", 
        "float32", 
        "float32", 
        "float32", 
        "float32", 
        "float32", 
        "float32", 
        "float32", 
        "float32", 
        "float32", 
        "float32", 
        "float32", 
        "float32", 
        "float32", 
        "float32", 
        "float32", 
        "float32", 
        "float32", 
        "float32", 
        "float32", 
        "float32", 
        "float32", 
        "float32", 
        "float32", 
        "float32", 
        "float32", 
        "float32", 
        "float32", 
        "float32", 
        "float32", 
        "float32", 
        "float32", 
        "float32", 
        "float32", 
        "float32", 
        "float32", 
        "float32", 
        "float32", 
        "float32", 
        "float32", 
        "float32", 
        "float32", 
        "float32", 
        "float32", 
        "float32", 
        "float32", 
        "float32", 
        "float32", 
        "float32", 
        "float32", 
        "float32", 
        "float32", 
        "float32", 
        "float32", 
        "float32", 
        "float32", 
        "float32", 
        "float32", 
        "float32", 
        "float32", 
        "float32", 
        "float32", 
        "float32", 
        "float32", 
        "float32", 
        "float32", 
        "float32", 
        "float32", 
        "float32", 
        "float32", 
        "float32", 
        "float32", 
        "float32", 
        "float32", 
        "float32", 
        "float32", 
        "float32", 
        "float32", 
        "float32", 
        "float32", 
        "float32", 
        "float32", 
        "float32", 
        "float32", 
        "float32", 
        "float32", 
        "float32", 
        "float32", 
        "float32", 
        "float32", 
        "float32", 
        "float32", 
        "float32", 
        "float32", 
        "float32", 
        "float32", 
        "float32", 
        "float32", 
        "float32", 
        "float32", 
        "float32", 
        "float32", 
        "float32", 
        "float32", 
        "float32", 
        "float32", 
        "float32"]]
  }
}